…
I0713 13:18:34.255022 22823 upgrade_proto.cpp:70] Successfully upgraded file specified using deprecated input fields.
W0713 13:18:34.255096 22823 upgrade_proto.cpp:72] Note that future Caffe releases will only support input layers and not input fields.
I0713 13:18:34.256659 22823 net.cpp:51] Initializing net from parameters: 
name: "Sphere-20"
state {
  phase: TRAIN
}
layer {
  name: "input"
  type: "Input"
  top: "data"
  top: "label"
  input_param {
    shape {
      dim: 50
      dim: 1
      dim: 300
      dim: 257
    }
    shape {
      dim: 50
      dim: 1
      dim: 1
      dim: 1
    }
  }
}
layer {
  name: "conv1_1"
  type: "Convolution"
  bottom: "data"
  top: "conv1_1"
  param {
    lr_mult: 1
    decay_mult: 1
  }
  param {
    lr_mult: 2
    decay_mult: 0
  }
  convolution_param {
    num_output: 64
    pad: 1
    kernel_size: 3
    stride: 2
    weight_filler {
      type: "xavier"
    }
    bias_filler {
      type: "constant"
      value: 0
    }
  }
}
layer {
  name: "relu1_1"
  type: "PReLU"
  bottom: "conv1_1"
  top: "conv1_1"
}
layer {
  name: "conv1_2"
  type: "Convolution"
  bottom: "conv1_1"
  top: "conv1_2"
  param {
    lr_mult: 1
    decay_mult: 1
  }
  param {
    lr_mult: 0
    decay_mult: 0
  }
  convolution_param {
    num_output: 64
    pad: 1
    kernel_size: 3
    stride: 1
    weight_filler {
      type: "gaussian"
      std: 0.01
    }
    bias_filler {
      type: "constant"
      value: 0
    }
  }
}
layer {
  name: "relu1_2"
  type: "PReLU"
  bottom: "conv1_2"
  top: "conv1_2"
}
layer {
  name: "conv1_3"
  type: "Convolution"
  bottom: "conv1_2"
  top: "conv1_3"
  param {
    lr_mult: 1
    decay_mult: 1
  }
  param {
    lr_mult: 0
    decay_mult: 0
  }
  convolution_param {
    num_output: 64
    pad: 1
    kernel_size: 3
    stride: 1
    weight_filler {
      type: "gaussian"
      std: 0.01
    }
    bias_filler {
      type: "constant"
      value: 0
    }
  }
}
layer {
  name: "relu1_3"
  type: "PReLU"
  bottom: "conv1_3"
  top: "conv1_3"
}
layer {
  name: "res1_3"
  type: "Eltwise"
  bottom: "conv1_1"
  bottom: "conv1_3"
  top: "res1_3"
  eltwise_param {
    operation: SUM
  }
}
layer {
  name: "conv2_1"
  type: "Convolution"
  bottom: "res1_3"
  top: "conv2_1"
  param {
    lr_mult: 1
    decay_mult: 1
  }
  param {
    lr_mult: 2
    decay_mult: 0
  }
  convolution_param {
    num_output: 128
    pad: 1
    kernel_size: 3
    stride: 2
    weight_filler {
      type: "xavier"
    }
    bias_filler {
      type: "constant"
      value: 0
    }
  }
}
layer {
  name: "relu2_1"
  type: "PReLU"
  bottom: "conv2_1"
  top: "conv2_1"
}
layer {
  name: "conv2_2"
  type: "Convolution"
  bottom: "conv2_1"
  top: "conv2_2"
  param {
    lr_mult: 1
    decay_mult: 1
  }
  param {
    lr_mult: 0
    decay_mult: 0
  }
  convolution_param {
    num_output: 128
    pad: 1
    kernel_size: 3
    stride: 1
    weight_filler {
      type: "gaussian"
      std: 0.01
    }
    bias_filler {
      type: "constant"
      value: 0
    }
  }
}
layer {
  name: "relu2_2"
  type: "PReLU"
  bottom: "conv2_2"
  top: "conv2_2"
}
layer {
  name: "conv2_3"
  type: "Convolution"
  bottom: "conv2_2"
  top: "conv2_3"
  param {
    lr_mult: 1
    decay_mult: 1
  }
  param {
    lr_mult: 0
    decay_mult: 0
  }
  convolution_param {
    num_output: 128
    pad: 1
    kernel_size: 3
    stride: 1
    weight_filler {
      type: "gaussian"
      std: 0.01
    }
    bias_filler {
      type: "constant"
      value: 0
    }
  }
}
layer {
  name: "relu2_3"
  type: "PReLU"
  bottom: "conv2_3"
  top: "conv2_3"
}
layer {
  name: "res2_3"
  type: "Eltwise"
  bottom: "conv2_1"
  bottom: "conv2_3"
  top: "res2_3"
  eltwise_param {
    operation: SUM
  }
}
layer {
  name: "conv2_4"
  type: "Convolution"
  bottom: "res2_3"
  top: "conv2_4"
  param {
    lr_mult: 1
    decay_mult: 1
  }
  param {
    lr_mult: 0
    decay_mult: 0
  }
  convolution_param {
    num_output: 128
    pad: 1
    kernel_size: 3
    stride: 1
    weight_filler {
      type: "gaussian"
      std: 0.01
    }
    bias_filler {
      type: "constant"
      value: 0
    }
  }
}
layer {
  name: "relu2_4"
  type: "PReLU"
  bottom: "conv2_4"
  top: "conv2_4"
}
layer {
  name: "conv2_5"
  type: "Convolution"
  bottom: "conv2_4"
  top: "conv2_5"
  param {
    lr_mult: 1
    decay_mult: 1
  }
  param {
    lr_mult: 0
    decay_mult: 0
  }
  convolution_param {
    num_output: 128
    pad: 1
    kernel_size: 3
    stride: 1
    weight_filler {
      type: "gaussian"
      std: 0.01
    }
    bias_filler {
      type: "constant"
      value: 0
    }
  }
}
layer {
  name: "relu2_5"
  type: "PReLU"
  bottom: "conv2_5"
  top: "conv2_5"
}
layer {
  name: "res2_5"
  type: "Eltwise"
  bottom: "res2_3"
  bottom: "conv2_5"
  top: "res2_5"
  eltwise_param {
    operation: SUM
  }
}
layer {
  name: "conv3_1"
  type: "Convolution"
  bottom: "res2_5"
  top: "conv3_1"
  param {
    lr_mult: 1
    decay_mult: 1
  }
  param {
    lr_mult: 2
    decay_mult: 0
  }
  convolution_param {
    num_output: 256
    pad: 1
    kernel_size: 3
    stride: 2
    weight_filler {
      type: "xavier"
    }
    bias_filler {
      type: "constant"
      value: 0
    }
  }
}
layer {
  name: "relu3_1"
  type: "PReLU"
  bottom: "conv3_1"
  top: "conv3_1"
}
layer {
  name: "conv3_2"
  type: "Convolution"
  bottom: "conv3_1"
  top: "conv3_2"
  param {
    lr_mult: 1
    decay_mult: 1
  }
  param {
    lr_mult: 0
    decay_mult: 0
  }
  convolution_param {
    num_output: 256
    pad: 1
    kernel_size: 3
    stride: 1
    weight_filler {
      type: "gaussian"
      std: 0.01
    }
    bias_filler {
      type: "constant"
      value: 0
    }
  }
}
layer {
  name: "relu3_2"
  type: "PReLU"
  bottom: "conv3_2"
  top: "conv3_2"
}
layer {
  name: "conv3_3"
  type: "Convolution"
  bottom: "conv3_2"
  top: "conv3_3"
  param {
    lr_mult: 1
    decay_mult: 1
  }
  param {
    lr_mult: 0
    decay_mult: 0
  }
  convolution_param {
    num_output: 256
    pad: 1
    kernel_size: 3
    stride: 1
    weight_filler {
      type: "gaussian"
      std: 0.01
    }
    bias_filler {
      type: "constant"
      value: 0
    }
  }
}
layer {
  name: "relu3_3"
  type: "PReLU"
  bottom: "conv3_3"
  top: "conv3_3"
}
layer {
  name: "res3_3"
  type: "Eltwise"
  bottom: "conv3_1"
  bottom: "conv3_3"
  top: "res3_3"
  eltwise_param {
    operation: SUM
  }
}
layer {
  name: "conv3_4"
  type: "Convolution"
  bottom: "res3_3"
  top: "conv3_4"
  param {
    lr_mult: 1
    decay_mult: 1
  }
  param {
    lr_mult: 0
    decay_mult: 0
  }
  convolution_param {
    num_output: 256
    pad: 1
    kernel_size: 3
    stride: 1
    weight_filler {
      type: "gaussian"
      std: 0.01
    }
    bias_filler {
      type: "constant"
      value: 0
    }
  }
}
layer {
  name: "relu3_4"
  type: "PReLU"
  bottom: "conv3_4"
  top: "conv3_4"
}
layer {
  name: "conv3_5"
  type: "Convolution"
  bottom: "conv3_4"
  top: "conv3_5"
  param {
    lr_mult: 1
    decay_mult: 1
  }
  param {
    lr_mult: 0
    decay_mult: 0
  }
  convolution_param {
    num_output: 256
    pad: 1
    kernel_size: 3
    stride: 1
    weight_filler {
      type: "gaussian"
      std: 0.01
    }
    bias_filler {
      type: "constant"
      value: 0
    }
  }
}
layer {
  name: "relu3_5"
  type: "PReLU"
  bottom: "conv3_5"
  top: "conv3_5"
}
layer {
  name: "res3_5"
  type: "Eltwise"
  bottom: "res3_3"
  bottom: "conv3_5"
  top: "res3_5"
  eltwise_param {
    operation: SUM
  }
}
layer {
  name: "conv3_6"
  type: "Convolution"
  bottom: "res3_5"
  top: "conv3_6"
  param {
    lr_mult: 1
    decay_mult: 1
  }
  param {
    lr_mult: 0
    decay_mult: 0
  }
  convolution_param {
    num_output: 256
    pad: 1
    kernel_size: 3
    stride: 1
    weight_filler {
      type: "gaussian"
      std: 0.01
    }
    bias_filler {
      type: "constant"
      value: 0
    }
  }
}
layer {
  name: "relu3_6"
  type: "PReLU"
  bottom: "conv3_6"
  top: "conv3_6"
}
layer {
  name: "conv3_7"
  type: "Convolution"
  bottom: "conv3_6"
  top: "conv3_7"
  param {
    lr_mult: 1
    decay_mult: 1
  }
  param {
    lr_mult: 0
    decay_mult: 0
  }
  convolution_param {
    num_output: 256
    pad: 1
    kernel_size: 3
    stride: 1
    weight_filler {
      type: "gaussian"
      std: 0.01
    }
    bias_filler {
      type: "constant"
      value: 0
    }
  }
}
layer {
  name: "relu3_7"
  type: "PReLU"
  bottom: "conv3_7"
  top: "conv3_7"
}
layer {
  name: "res3_7"
  type: "Eltwise"
  bottom: "res3_5"
  bottom: "conv3_7"
  top: "res3_7"
  eltwise_param {
    operation: SUM
  }
}
layer {
  name: "conv3_8"
  type: "Convolution"
  bottom: "res3_7"
  top: "conv3_8"
  param {
    lr_mult: 1
    decay_mult: 1
  }
  param {
    lr_mult: 0
    decay_mult: 0
  }
  convolution_param {
    num_output: 256
    pad: 1
    kernel_size: 3
    stride: 1
    weight_filler {
      type: "gaussian"
      std: 0.01
    }
    bias_filler {
      type: "constant"
      value: 0
    }
  }
}
layer {
  name: "relu3_8"
  type: "PReLU"
  bottom: "conv3_8"
  top: "conv3_8"
}
layer {
  name: "conv3_9"
  type: "Convolution"
  bottom: "conv3_8"
  top: "conv3_9"
  param {
    lr_mult: 1
    decay_mult: 1
  }
  param {
    lr_mult: 0
    decay_mult: 0
  }
  convolution_param {
    num_output: 256
    pad: 1
    kernel_size: 3
    stride: 1
    weight_filler {
      type: "gaussian"
      std: 0.01
    }
    bias_filler {
      type: "constant"
      value: 0
    }
  }
}
layer {
  name: "relu3_9"
  type: "PReLU"
  bottom: "conv3_9"
  top: "conv3_9"
}
layer {
  name: "res3_9"
  type: "Eltwise"
  bottom: "res3_7"
  bottom: "conv3_9"
  top: "res3_9"
  eltwise_param {
    operation: SUM
  }
}
layer {
  name: "conv4_1"
  type: "Convolution"
  bottom: "res3_9"
  top: "conv4_1"
  param {
    lr_mult: 1
    decay_mult: 1
  }
  param {
    lr_mult: 2
    decay_mult: 0
  }
  convolution_param {
    num_output: 512
    pad: 1
    kernel_size: 3
    stride: 2
    weight_filler {
      type: "xavier"
    }
    bias_filler {
      type: "constant"
      value: 0
    }
  }
}
layer {
  name: "relu4_1"
  type: "PReLU"
  bottom: "conv4_1"
  top: "conv4_1"
}
layer {
  name: "conv4_2"
  type: "Convolution"
  bottom: "conv4_1"
  top: "conv4_2"
  param {
    lr_mult: 1
    decay_mult: 1
  }
  param {
    lr_mult: 0
    decay_mult: 0
  }
  convolution_param {
    num_output: 512
    pad: 1
    kernel_size: 3
    stride: 1
    weight_filler {
      type: "gaussian"
      std: 0.01
    }
    bias_filler {
      type: "constant"
      value: 0
    }
  }
}
layer {
  name: "relu4_2"
  type: "PReLU"
  bottom: "conv4_2"
  top: "conv4_2"
}
layer {
  name: "conv4_3"
  type: "Convolution"
  bottom: "conv4_2"
  top: "conv4_3"
  param {
    lr_mult: 1
    decay_mult: 1
  }
  param {
    lr_mult: 0
    decay_mult: 0
  }
  convolution_param {
    num_output: 512
    pad: 1
    kernel_size: 3
    stride: 1
    weight_filler {
      type: "gaussian"
      std: 0.01
    }
    bias_filler {
      type: "constant"
      value: 0
    }
  }
}
layer {
  name: "relu4_3"
  type: "PReLU"
  bottom: "conv4_3"
  top: "conv4_3"
}
layer {
  name: "res4_3"
  type: "Eltwise"
  bottom: "conv4_1"
  bottom: "conv4_3"
  top: "res4_3"
  eltwise_param {
    operation: SUM
  }
}
layer {
  name: "pool1"
  type: "Pooling"
  bottom: "res4_3"
  top: "res4_3p"
  pooling_param {
    pool: AVE
    kernel_h: 19
    kernel_w: 1
  }
}
layer {
  name: "fc5"
  type: "InnerProduct"
  bottom: "res4_3p"
  top: "fc5"
  param {
    lr_mult: 2
    decay_mult: 0
  }
  param {
    lr_mult: 1
    decay_mult: 0
  }
  inner_product_param {
    num_output: 512
    weight_filler {
      type: "xavier"
    }
    bias_filler {
      type: "constant"
      value: 0
    }
  }
}
layer {
  name: "norm1"
  type: "Normalize"
  bottom: "fc5"
  top: "norm1"
}
layer {
  name: "fc6"
  type: "InnerProduct"
  bottom: "norm1"
  top: "fc6"
  param {
    lr_mult: 1
    decay_mult: 1
  }
  param {
    lr_mult: 2
    decay_mult: 0
  }
  inner_product_param {
    num_output: 1251
    weight_filler {
      type: "xavier"
    }
    bias_filler {
      type: "constant"
      value: 0
    }
  }
}
layer {
  name: "fc6_scale"
  type: "Scale"
  bottom: "fc6"
  top: "fc6_scale"
  param {
    lr_mult: 1
    decay_mult: 0
  }
  scale_param {
    filler {
      value: 50
    }
    bias_term: true
  }
}
layer {
  name: "label_scale_margin"
  type: "LabelSpecificAdd"
  bottom: "fc6_scale"
  bottom: "label"
  top: "fc6_scale_margin"
  label_specific_add_param {
    bias: -25
  }
}
layer {
  name: "softmax_loss"
  type: "SoftmaxWithLoss"
  bottom: "fc6_scale_margin"
  bottom: "label"
  top: "softmax_loss"
}
layer {
  name: "top1Accuracy"
  type: "Accuracy"
  bottom: "fc6"
  bottom: "label"
  top: "top1Accuracy"
}
layer {
  name: "top5Accuracy"
  type: "Accuracy"
  bottom: "fc6"
  bottom: "label"
  top: "top5Accuracy"
  accuracy_param {
    top_k: 5
  }
}
I0713 13:18:34.270630 22823 layer_factory.hpp:77] Creating layer input
I0713 13:18:34.270689 22823 net.cpp:84] Creating Layer input
I0713 13:18:34.270763 22823 net.cpp:380] input -> data
I0713 13:18:34.270799 22823 net.cpp:380] input -> label
I0713 13:18:34.272389 22823 net.cpp:122] Setting up input
I0713 13:18:34.272433 22823 net.cpp:129] Top shape: 50 1 300 257 (3855000)
I0713 13:18:34.272456 22823 net.cpp:129] Top shape: 50 1 1 1 (50)
I0713 13:18:34.272526 22823 net.cpp:137] Memory required for data: 15420200
I0713 13:18:34.272552 22823 layer_factory.hpp:77] Creating layer label_input_1_split
I0713 13:18:34.272579 22823 net.cpp:84] Creating Layer label_input_1_split
I0713 13:18:34.272601 22823 net.cpp:406] label_input_1_split <- label
I0713 13:18:34.272665 22823 net.cpp:380] label_input_1_split -> label_input_1_split_0
I0713 13:18:34.272711 22823 net.cpp:380] label_input_1_split -> label_input_1_split_1
I0713 13:18:34.272739 22823 net.cpp:380] label_input_1_split -> label_input_1_split_2
I0713 13:18:34.272807 22823 net.cpp:380] label_input_1_split -> label_input_1_split_3
I0713 13:18:34.272895 22823 net.cpp:122] Setting up label_input_1_split
I0713 13:18:34.272925 22823 net.cpp:129] Top shape: 50 1 1 1 (50)
I0713 13:18:34.272948 22823 net.cpp:129] Top shape: 50 1 1 1 (50)
I0713 13:18:34.273010 22823 net.cpp:129] Top shape: 50 1 1 1 (50)
I0713 13:18:34.273036 22823 net.cpp:129] Top shape: 50 1 1 1 (50)
I0713 13:18:34.273056 22823 net.cpp:137] Memory required for data: 15421000
I0713 13:18:34.273077 22823 layer_factory.hpp:77] Creating layer conv1_1
I0713 13:18:34.273164 22823 net.cpp:84] Creating Layer conv1_1
I0713 13:18:34.273188 22823 net.cpp:406] conv1_1 <- data
I0713 13:18:34.273214 22823 net.cpp:380] conv1_1 -> conv1_1
I0713 13:18:34.681887 22823 net.cpp:122] Setting up conv1_1
I0713 13:18:34.681973 22823 net.cpp:129] Top shape: 50 64 150 129 (61920000)
I0713 13:18:34.681998 22823 net.cpp:137] Memory required for data: 263101000
I0713 13:18:34.682036 22823 layer_factory.hpp:77] Creating layer relu1_1
I0713 13:18:34.682166 22823 net.cpp:84] Creating Layer relu1_1
I0713 13:18:34.682193 22823 net.cpp:406] relu1_1 <- conv1_1
I0713 13:18:34.682219 22823 net.cpp:367] relu1_1 -> conv1_1 (in-place)
I0713 13:18:34.686766 22823 net.cpp:122] Setting up relu1_1
I0713 13:18:34.686864 22823 net.cpp:129] Top shape: 50 64 150 129 (61920000)
I0713 13:18:34.686889 22823 net.cpp:137] Memory required for data: 510781000
I0713 13:18:34.686918 22823 layer_factory.hpp:77] Creating layer conv1_1_relu1_1_0_split
I0713 13:18:34.686949 22823 net.cpp:84] Creating Layer conv1_1_relu1_1_0_split
I0713 13:18:34.687012 22823 net.cpp:406] conv1_1_relu1_1_0_split <- conv1_1
I0713 13:18:34.687041 22823 net.cpp:380] conv1_1_relu1_1_0_split -> conv1_1_relu1_1_0_split_0
I0713 13:18:34.687072 22823 net.cpp:380] conv1_1_relu1_1_0_split -> conv1_1_relu1_1_0_split_1
I0713 13:18:34.687180 22823 net.cpp:122] Setting up conv1_1_relu1_1_0_split
I0713 13:18:34.687212 22823 net.cpp:129] Top shape: 50 64 150 129 (61920000)
I0713 13:18:34.687235 22823 net.cpp:129] Top shape: 50 64 150 129 (61920000)
I0713 13:18:34.687255 22823 net.cpp:137] Memory required for data: 1006141000
I0713 13:18:34.687317 22823 layer_factory.hpp:77] Creating layer conv1_2
I0713 13:18:34.687355 22823 net.cpp:84] Creating Layer conv1_2
I0713 13:18:34.687377 22823 net.cpp:406] conv1_2 <- conv1_1_relu1_1_0_split_0
I0713 13:18:34.687403 22823 net.cpp:380] conv1_2 -> conv1_2
I0713 13:18:34.689263 22823 net.cpp:122] Setting up conv1_2
I0713 13:18:34.689296 22823 net.cpp:129] Top shape: 50 64 150 129 (61920000)
I0713 13:18:34.689313 22823 net.cpp:137] Memory required for data: 1253821000
I0713 13:18:34.689335 22823 layer_factory.hpp:77] Creating layer relu1_2
I0713 13:18:34.689397 22823 net.cpp:84] Creating Layer relu1_2
I0713 13:18:34.689416 22823 net.cpp:406] relu1_2 <- conv1_2
I0713 13:18:34.689435 22823 net.cpp:367] relu1_2 -> conv1_2 (in-place)
I0713 13:18:34.692502 22823 net.cpp:122] Setting up relu1_2
I0713 13:18:34.692574 22823 net.cpp:129] Top shape: 50 64 150 129 (61920000)
I0713 13:18:34.692591 22823 net.cpp:137] Memory required for data: 1501501000
I0713 13:18:34.692610 22823 layer_factory.hpp:77] Creating layer conv1_3
I0713 13:18:34.692636 22823 net.cpp:84] Creating Layer conv1_3
I0713 13:18:34.692742 22823 net.cpp:406] conv1_3 <- conv1_2
I0713 13:18:34.692771 22823 net.cpp:380] conv1_3 -> conv1_3
I0713 13:18:34.693791 22823 net.cpp:122] Setting up conv1_3
I0713 13:18:34.693822 22823 net.cpp:129] Top shape: 50 64 150 129 (61920000)
I0713 13:18:34.693876 22823 net.cpp:137] Memory required for data: 1749181000
I0713 13:18:34.693900 22823 layer_factory.hpp:77] Creating layer relu1_3
I0713 13:18:34.693922 22823 net.cpp:84] Creating Layer relu1_3
I0713 13:18:34.693938 22823 net.cpp:406] relu1_3 <- conv1_3
I0713 13:18:34.693989 22823 net.cpp:367] relu1_3 -> conv1_3 (in-place)
I0713 13:18:34.697489 22823 net.cpp:122] Setting up relu1_3
I0713 13:18:34.697525 22823 net.cpp:129] Top shape: 50 64 150 129 (61920000)
I0713 13:18:34.697541 22823 net.cpp:137] Memory required for data: 1996861000
I0713 13:18:34.697604 22823 layer_factory.hpp:77] Creating layer res1_3
I0713 13:18:34.697631 22823 net.cpp:84] Creating Layer res1_3
I0713 13:18:34.697649 22823 net.cpp:406] res1_3 <- conv1_1_relu1_1_0_split_1
I0713 13:18:34.697666 22823 net.cpp:406] res1_3 <- conv1_3
I0713 13:18:34.697734 22823 net.cpp:380] res1_3 -> res1_3
I0713 13:18:34.697782 22823 net.cpp:122] Setting up res1_3
I0713 13:18:34.697805 22823 net.cpp:129] Top shape: 50 64 150 129 (61920000)
I0713 13:18:34.697820 22823 net.cpp:137] Memory required for data: 2244541000
I0713 13:18:34.697870 22823 layer_factory.hpp:77] Creating layer conv2_1
I0713 13:18:34.697896 22823 net.cpp:84] Creating Layer conv2_1
I0713 13:18:34.697913 22823 net.cpp:406] conv2_1 <- res1_3
I0713 13:18:34.697932 22823 net.cpp:380] conv2_1 -> conv2_1
I0713 13:18:34.702335 22823 net.cpp:122] Setting up conv2_1
I0713 13:18:34.702368 22823 net.cpp:129] Top shape: 50 128 75 65 (31200000)
I0713 13:18:34.702385 22823 net.cpp:137] Memory required for data: 2369341000
I0713 13:18:34.702406 22823 layer_factory.hpp:77] Creating layer relu2_1
I0713 13:18:34.702468 22823 net.cpp:84] Creating Layer relu2_1
I0713 13:18:34.702487 22823 net.cpp:406] relu2_1 <- conv2_1
I0713 13:18:34.702507 22823 net.cpp:367] relu2_1 -> conv2_1 (in-place)
I0713 13:18:34.705039 22823 net.cpp:122] Setting up relu2_1
I0713 13:18:34.705111 22823 net.cpp:129] Top shape: 50 128 75 65 (31200000)
I0713 13:18:34.705129 22823 net.cpp:137] Memory required for data: 2494141000
I0713 13:18:34.705149 22823 layer_factory.hpp:77] Creating layer conv2_1_relu2_1_0_split
I0713 13:18:34.705170 22823 net.cpp:84] Creating Layer conv2_1_relu2_1_0_split
I0713 13:18:34.705231 22823 net.cpp:406] conv2_1_relu2_1_0_split <- conv2_1
I0713 13:18:34.705253 22823 net.cpp:380] conv2_1_relu2_1_0_split -> conv2_1_relu2_1_0_split_0
I0713 13:18:34.705276 22823 net.cpp:380] conv2_1_relu2_1_0_split -> conv2_1_relu2_1_0_split_1
I0713 13:18:34.705354 22823 net.cpp:122] Setting up conv2_1_relu2_1_0_split
I0713 13:18:34.705379 22823 net.cpp:129] Top shape: 50 128 75 65 (31200000)
I0713 13:18:34.705396 22823 net.cpp:129] Top shape: 50 128 75 65 (31200000)
I0713 13:18:34.705411 22823 net.cpp:137] Memory required for data: 2743741000
I0713 13:18:34.705466 22823 layer_factory.hpp:77] Creating layer conv2_2
I0713 13:18:34.705492 22823 net.cpp:84] Creating Layer conv2_2
I0713 13:18:34.705509 22823 net.cpp:406] conv2_2 <- conv2_1_relu2_1_0_split_0
I0713 13:18:34.705528 22823 net.cpp:380] conv2_2 -> conv2_2
I0713 13:18:34.711033 22823 net.cpp:122] Setting up conv2_2
I0713 13:18:34.711068 22823 net.cpp:129] Top shape: 50 128 75 65 (31200000)
I0713 13:18:34.711086 22823 net.cpp:137] Memory required for data: 2868541000
I0713 13:18:34.711107 22823 layer_factory.hpp:77] Creating layer relu2_2
I0713 13:18:34.711169 22823 net.cpp:84] Creating Layer relu2_2
I0713 13:18:34.711189 22823 net.cpp:406] relu2_2 <- conv2_2
I0713 13:18:34.711207 22823 net.cpp:367] relu2_2 -> conv2_2 (in-place)
I0713 13:18:34.713078 22823 net.cpp:122] Setting up relu2_2
I0713 13:18:34.713150 22823 net.cpp:129] Top shape: 50 128 75 65 (31200000)
I0713 13:18:34.713168 22823 net.cpp:137] Memory required for data: 2993341000
I0713 13:18:34.713188 22823 layer_factory.hpp:77] Creating layer conv2_3
I0713 13:18:34.713214 22823 net.cpp:84] Creating Layer conv2_3
I0713 13:18:34.713265 22823 net.cpp:406] conv2_3 <- conv2_2
I0713 13:18:34.713289 22823 net.cpp:380] conv2_3 -> conv2_3
I0713 13:18:34.716079 22823 net.cpp:122] Setting up conv2_3
I0713 13:18:34.716114 22823 net.cpp:129] Top shape: 50 128 75 65 (31200000)
I0713 13:18:34.716171 22823 net.cpp:137] Memory required for data: 3118141000
I0713 13:18:34.716197 22823 layer_factory.hpp:77] Creating layer relu2_3
I0713 13:18:34.716222 22823 net.cpp:84] Creating Layer relu2_3
I0713 13:18:34.716238 22823 net.cpp:406] relu2_3 <- conv2_3
I0713 13:18:34.716300 22823 net.cpp:367] relu2_3 -> conv2_3 (in-place)
I0713 13:18:34.718175 22823 net.cpp:122] Setting up relu2_3
I0713 13:18:34.718207 22823 net.cpp:129] Top shape: 50 128 75 65 (31200000)
I0713 13:18:34.718225 22823 net.cpp:137] Memory required for data: 3242941000
I0713 13:18:34.718284 22823 layer_factory.hpp:77] Creating layer res2_3
I0713 13:18:34.718309 22823 net.cpp:84] Creating Layer res2_3
I0713 13:18:34.718327 22823 net.cpp:406] res2_3 <- conv2_1_relu2_1_0_split_1
I0713 13:18:34.718343 22823 net.cpp:406] res2_3 <- conv2_3
I0713 13:18:34.718399 22823 net.cpp:380] res2_3 -> res2_3
I0713 13:18:34.718446 22823 net.cpp:122] Setting up res2_3
I0713 13:18:34.718468 22823 net.cpp:129] Top shape: 50 128 75 65 (31200000)
I0713 13:18:34.718484 22823 net.cpp:137] Memory required for data: 3367741000
I0713 13:18:34.718533 22823 layer_factory.hpp:77] Creating layer res2_3_res2_3_0_split
I0713 13:18:34.718556 22823 net.cpp:84] Creating Layer res2_3_res2_3_0_split
I0713 13:18:34.718571 22823 net.cpp:406] res2_3_res2_3_0_split <- res2_3
I0713 13:18:34.718590 22823 net.cpp:380] res2_3_res2_3_0_split -> res2_3_res2_3_0_split_0
I0713 13:18:34.718641 22823 net.cpp:380] res2_3_res2_3_0_split -> res2_3_res2_3_0_split_1
I0713 13:18:34.718693 22823 net.cpp:122] Setting up res2_3_res2_3_0_split
I0713 13:18:34.718716 22823 net.cpp:129] Top shape: 50 128 75 65 (31200000)
I0713 13:18:34.718734 22823 net.cpp:129] Top shape: 50 128 75 65 (31200000)
I0713 13:18:34.718781 22823 net.cpp:137] Memory required for data: 3617341000
I0713 13:18:34.718799 22823 layer_factory.hpp:77] Creating layer conv2_4
I0713 13:18:34.718823 22823 net.cpp:84] Creating Layer conv2_4
I0713 13:18:34.718840 22823 net.cpp:406] conv2_4 <- res2_3_res2_3_0_split_0
I0713 13:18:34.718894 22823 net.cpp:380] conv2_4 -> conv2_4
I0713 13:18:34.721745 22823 net.cpp:122] Setting up conv2_4
I0713 13:18:34.721778 22823 net.cpp:129] Top shape: 50 128 75 65 (31200000)
I0713 13:18:34.721796 22823 net.cpp:137] Memory required for data: 3742141000
I0713 13:18:34.721859 22823 layer_factory.hpp:77] Creating layer relu2_4
I0713 13:18:34.721884 22823 net.cpp:84] Creating Layer relu2_4
I0713 13:18:34.721900 22823 net.cpp:406] relu2_4 <- conv2_4
I0713 13:18:34.721918 22823 net.cpp:367] relu2_4 -> conv2_4 (in-place)
I0713 13:18:34.727499 22823 net.cpp:122] Setting up relu2_4
I0713 13:18:34.727532 22823 net.cpp:129] Top shape: 50 128 75 65 (31200000)
I0713 13:18:34.727550 22823 net.cpp:137] Memory required for data: 3866941000
I0713 13:18:34.727568 22823 layer_factory.hpp:77] Creating layer conv2_5
I0713 13:18:34.727634 22823 net.cpp:84] Creating Layer conv2_5
I0713 13:18:34.727654 22823 net.cpp:406] conv2_5 <- conv2_4
I0713 13:18:34.727674 22823 net.cpp:380] conv2_5 -> conv2_5
I0713 13:18:34.731765 22823 net.cpp:122] Setting up conv2_5
I0713 13:18:34.731797 22823 net.cpp:129] Top shape: 50 128 75 65 (31200000)
I0713 13:18:34.731855 22823 net.cpp:137] Memory required for data: 3991741000
I0713 13:18:34.731879 22823 layer_factory.hpp:77] Creating layer relu2_5
I0713 13:18:34.731900 22823 net.cpp:84] Creating Layer relu2_5
I0713 13:18:34.731917 22823 net.cpp:406] relu2_5 <- conv2_5
I0713 13:18:34.731971 22823 net.cpp:367] relu2_5 -> conv2_5 (in-place)
I0713 13:18:34.733834 22823 net.cpp:122] Setting up relu2_5
I0713 13:18:34.733865 22823 net.cpp:129] Top shape: 50 128 75 65 (31200000)
I0713 13:18:34.733882 22823 net.cpp:137] Memory required for data: 4116541000
I0713 13:18:34.733942 22823 layer_factory.hpp:77] Creating layer res2_5
I0713 13:18:34.733965 22823 net.cpp:84] Creating Layer res2_5
I0713 13:18:34.733983 22823 net.cpp:406] res2_5 <- res2_3_res2_3_0_split_1
I0713 13:18:34.733999 22823 net.cpp:406] res2_5 <- conv2_5
I0713 13:18:34.734053 22823 net.cpp:380] res2_5 -> res2_5
I0713 13:18:34.734102 22823 net.cpp:122] Setting up res2_5
I0713 13:18:34.734124 22823 net.cpp:129] Top shape: 50 128 75 65 (31200000)
I0713 13:18:34.734139 22823 net.cpp:137] Memory required for data: 4241341000
I0713 13:18:34.734189 22823 layer_factory.hpp:77] Creating layer conv3_1
I0713 13:18:34.734215 22823 net.cpp:84] Creating Layer conv3_1
I0713 13:18:34.734232 22823 net.cpp:406] conv3_1 <- res2_5
I0713 13:18:34.734252 22823 net.cpp:380] conv3_1 -> conv3_1
I0713 13:18:34.738193 22823 net.cpp:122] Setting up conv3_1
I0713 13:18:34.738226 22823 net.cpp:129] Top shape: 50 256 38 33 (16051200)
I0713 13:18:34.738245 22823 net.cpp:137] Memory required for data: 4305545800
I0713 13:18:34.738279 22823 layer_factory.hpp:77] Creating layer relu3_1
I0713 13:18:34.738340 22823 net.cpp:84] Creating Layer relu3_1
I0713 13:18:34.738359 22823 net.cpp:406] relu3_1 <- conv3_1
I0713 13:18:34.738379 22823 net.cpp:367] relu3_1 -> conv3_1 (in-place)
I0713 13:18:34.739905 22823 net.cpp:122] Setting up relu3_1
I0713 13:18:34.739976 22823 net.cpp:129] Top shape: 50 256 38 33 (16051200)
I0713 13:18:34.739995 22823 net.cpp:137] Memory required for data: 4369750600
I0713 13:18:34.740015 22823 layer_factory.hpp:77] Creating layer conv3_1_relu3_1_0_split
I0713 13:18:34.740036 22823 net.cpp:84] Creating Layer conv3_1_relu3_1_0_split
I0713 13:18:34.740084 22823 net.cpp:406] conv3_1_relu3_1_0_split <- conv3_1
I0713 13:18:34.740106 22823 net.cpp:380] conv3_1_relu3_1_0_split -> conv3_1_relu3_1_0_split_0
I0713 13:18:34.740128 22823 net.cpp:380] conv3_1_relu3_1_0_split -> conv3_1_relu3_1_0_split_1
I0713 13:18:34.740216 22823 net.cpp:122] Setting up conv3_1_relu3_1_0_split
I0713 13:18:34.740240 22823 net.cpp:129] Top shape: 50 256 38 33 (16051200)
I0713 13:18:34.740258 22823 net.cpp:129] Top shape: 50 256 38 33 (16051200)
I0713 13:18:34.740272 22823 net.cpp:137] Memory required for data: 4498160200
I0713 13:18:34.740321 22823 layer_factory.hpp:77] Creating layer conv3_2
I0713 13:18:34.740347 22823 net.cpp:84] Creating Layer conv3_2
I0713 13:18:34.740365 22823 net.cpp:406] conv3_2 <- conv3_1_relu3_1_0_split_0
I0713 13:18:34.740386 22823 net.cpp:380] conv3_2 -> conv3_2
I0713 13:18:34.752189 22823 net.cpp:122] Setting up conv3_2
I0713 13:18:34.752223 22823 net.cpp:129] Top shape: 50 256 38 33 (16051200)
I0713 13:18:34.752240 22823 net.cpp:137] Memory required for data: 4562365000
I0713 13:18:34.752261 22823 layer_factory.hpp:77] Creating layer relu3_2
I0713 13:18:34.752322 22823 net.cpp:84] Creating Layer relu3_2
I0713 13:18:34.752341 22823 net.cpp:406] relu3_2 <- conv3_2
I0713 13:18:34.752362 22823 net.cpp:367] relu3_2 -> conv3_2 (in-place)
I0713 13:18:34.753926 22823 net.cpp:122] Setting up relu3_2
I0713 13:18:34.753998 22823 net.cpp:129] Top shape: 50 256 38 33 (16051200)
I0713 13:18:34.754016 22823 net.cpp:137] Memory required for data: 4626569800
I0713 13:18:34.754035 22823 layer_factory.hpp:77] Creating layer conv3_3
I0713 13:18:34.754061 22823 net.cpp:84] Creating Layer conv3_3
I0713 13:18:34.754113 22823 net.cpp:406] conv3_3 <- conv3_2
I0713 13:18:34.754137 22823 net.cpp:380] conv3_3 -> conv3_3
I0713 13:18:34.762192 22823 net.cpp:122] Setting up conv3_3
I0713 13:18:34.762225 22823 net.cpp:129] Top shape: 50 256 38 33 (16051200)
I0713 13:18:34.762282 22823 net.cpp:137] Memory required for data: 4690774600
I0713 13:18:34.762306 22823 layer_factory.hpp:77] Creating layer relu3_3
I0713 13:18:34.762327 22823 net.cpp:84] Creating Layer relu3_3
I0713 13:18:34.762344 22823 net.cpp:406] relu3_3 <- conv3_3
I0713 13:18:34.762396 22823 net.cpp:367] relu3_3 -> conv3_3 (in-place)
I0713 13:18:34.764871 22823 net.cpp:122] Setting up relu3_3
I0713 13:18:34.764905 22823 net.cpp:129] Top shape: 50 256 38 33 (16051200)
I0713 13:18:34.764922 22823 net.cpp:137] Memory required for data: 4754979400
I0713 13:18:34.764988 22823 layer_factory.hpp:77] Creating layer res3_3
I0713 13:18:34.765027 22823 net.cpp:84] Creating Layer res3_3
I0713 13:18:34.765045 22823 net.cpp:406] res3_3 <- conv3_1_relu3_1_0_split_1
I0713 13:18:34.765063 22823 net.cpp:406] res3_3 <- conv3_3
I0713 13:18:34.765117 22823 net.cpp:380] res3_3 -> res3_3
I0713 13:18:34.765166 22823 net.cpp:122] Setting up res3_3
I0713 13:18:34.765189 22823 net.cpp:129] Top shape: 50 256 38 33 (16051200)
I0713 13:18:34.765204 22823 net.cpp:137] Memory required for data: 4819184200
I0713 13:18:34.765254 22823 layer_factory.hpp:77] Creating layer res3_3_res3_3_0_split
I0713 13:18:34.765277 22823 net.cpp:84] Creating Layer res3_3_res3_3_0_split
I0713 13:18:34.765293 22823 net.cpp:406] res3_3_res3_3_0_split <- res3_3
I0713 13:18:34.765312 22823 net.cpp:380] res3_3_res3_3_0_split -> res3_3_res3_3_0_split_0
I0713 13:18:34.765365 22823 net.cpp:380] res3_3_res3_3_0_split -> res3_3_res3_3_0_split_1
I0713 13:18:34.765421 22823 net.cpp:122] Setting up res3_3_res3_3_0_split
I0713 13:18:34.765444 22823 net.cpp:129] Top shape: 50 256 38 33 (16051200)
I0713 13:18:34.765461 22823 net.cpp:129] Top shape: 50 256 38 33 (16051200)
I0713 13:18:34.765508 22823 net.cpp:137] Memory required for data: 4947593800
I0713 13:18:34.765525 22823 layer_factory.hpp:77] Creating layer conv3_4
I0713 13:18:34.765550 22823 net.cpp:84] Creating Layer conv3_4
I0713 13:18:34.765568 22823 net.cpp:406] conv3_4 <- res3_3_res3_3_0_split_0
I0713 13:18:34.765619 22823 net.cpp:380] conv3_4 -> conv3_4
I0713 13:18:34.773661 22823 net.cpp:122] Setting up conv3_4
I0713 13:18:34.773695 22823 net.cpp:129] Top shape: 50 256 38 33 (16051200)
I0713 13:18:34.773712 22823 net.cpp:137] Memory required for data: 5011798600
I0713 13:18:34.773774 22823 layer_factory.hpp:77] Creating layer relu3_4
I0713 13:18:34.773798 22823 net.cpp:84] Creating Layer relu3_4
I0713 13:18:34.773815 22823 net.cpp:406] relu3_4 <- conv3_4
I0713 13:18:34.773834 22823 net.cpp:367] relu3_4 -> conv3_4 (in-place)
I0713 13:18:34.775395 22823 net.cpp:122] Setting up relu3_4
I0713 13:18:34.775427 22823 net.cpp:129] Top shape: 50 256 38 33 (16051200)
I0713 13:18:34.775444 22823 net.cpp:137] Memory required for data: 5076003400
I0713 13:18:34.775463 22823 layer_factory.hpp:77] Creating layer conv3_5
I0713 13:18:34.775528 22823 net.cpp:84] Creating Layer conv3_5
I0713 13:18:34.775548 22823 net.cpp:406] conv3_5 <- conv3_4
I0713 13:18:34.775568 22823 net.cpp:380] conv3_5 -> conv3_5
I0713 13:18:34.784906 22823 net.cpp:122] Setting up conv3_5
I0713 13:18:34.784943 22823 net.cpp:129] Top shape: 50 256 38 33 (16051200)
I0713 13:18:34.785019 22823 net.cpp:137] Memory required for data: 5140208200
I0713 13:18:34.785044 22823 layer_factory.hpp:77] Creating layer relu3_5
I0713 13:18:34.785066 22823 net.cpp:84] Creating Layer relu3_5
I0713 13:18:34.785082 22823 net.cpp:406] relu3_5 <- conv3_5
I0713 13:18:34.785136 22823 net.cpp:367] relu3_5 -> conv3_5 (in-place)
I0713 13:18:34.786651 22823 net.cpp:122] Setting up relu3_5
I0713 13:18:34.786684 22823 net.cpp:129] Top shape: 50 256 38 33 (16051200)
I0713 13:18:34.786700 22823 net.cpp:137] Memory required for data: 5204413000
I0713 13:18:34.786761 22823 layer_factory.hpp:77] Creating layer res3_5
I0713 13:18:34.786784 22823 net.cpp:84] Creating Layer res3_5
I0713 13:18:34.786801 22823 net.cpp:406] res3_5 <- res3_3_res3_3_0_split_1
I0713 13:18:34.786818 22823 net.cpp:406] res3_5 <- conv3_5
I0713 13:18:34.786880 22823 net.cpp:380] res3_5 -> res3_5
I0713 13:18:34.786931 22823 net.cpp:122] Setting up res3_5
I0713 13:18:34.786953 22823 net.cpp:129] Top shape: 50 256 38 33 (16051200)
I0713 13:18:34.786968 22823 net.cpp:137] Memory required for data: 5268617800
I0713 13:18:34.787019 22823 layer_factory.hpp:77] Creating layer res3_5_res3_5_0_split
I0713 13:18:34.787041 22823 net.cpp:84] Creating Layer res3_5_res3_5_0_split
I0713 13:18:34.787057 22823 net.cpp:406] res3_5_res3_5_0_split <- res3_5
I0713 13:18:34.787076 22823 net.cpp:380] res3_5_res3_5_0_split -> res3_5_res3_5_0_split_0
I0713 13:18:34.787129 22823 net.cpp:380] res3_5_res3_5_0_split -> res3_5_res3_5_0_split_1
I0713 13:18:34.787189 22823 net.cpp:122] Setting up res3_5_res3_5_0_split
I0713 13:18:34.787211 22823 net.cpp:129] Top shape: 50 256 38 33 (16051200)
I0713 13:18:34.787228 22823 net.cpp:129] Top shape: 50 256 38 33 (16051200)
I0713 13:18:34.787276 22823 net.cpp:137] Memory required for data: 5397027400
I0713 13:18:34.787294 22823 layer_factory.hpp:77] Creating layer conv3_6
I0713 13:18:34.787319 22823 net.cpp:84] Creating Layer conv3_6
I0713 13:18:34.787336 22823 net.cpp:406] conv3_6 <- res3_5_res3_5_0_split_0
I0713 13:18:34.787387 22823 net.cpp:380] conv3_6 -> conv3_6
I0713 13:18:34.795941 22823 net.cpp:122] Setting up conv3_6
I0713 13:18:34.795976 22823 net.cpp:129] Top shape: 50 256 38 33 (16051200)
I0713 13:18:34.795994 22823 net.cpp:137] Memory required for data: 5461232200
I0713 13:18:34.796058 22823 layer_factory.hpp:77] Creating layer relu3_6
I0713 13:18:34.796082 22823 net.cpp:84] Creating Layer relu3_6
I0713 13:18:34.796099 22823 net.cpp:406] relu3_6 <- conv3_6
I0713 13:18:34.796118 22823 net.cpp:367] relu3_6 -> conv3_6 (in-place)
I0713 13:18:34.798177 22823 net.cpp:122] Setting up relu3_6
I0713 13:18:34.798211 22823 net.cpp:129] Top shape: 50 256 38 33 (16051200)
I0713 13:18:34.798228 22823 net.cpp:137] Memory required for data: 5525437000
I0713 13:18:34.798247 22823 layer_factory.hpp:77] Creating layer conv3_7
I0713 13:18:34.798315 22823 net.cpp:84] Creating Layer conv3_7
I0713 13:18:34.798336 22823 net.cpp:406] conv3_7 <- conv3_6
I0713 13:18:34.798357 22823 net.cpp:380] conv3_7 -> conv3_7
I0713 13:18:34.807144 22823 net.cpp:122] Setting up conv3_7
I0713 13:18:34.807178 22823 net.cpp:129] Top shape: 50 256 38 33 (16051200)
I0713 13:18:34.807236 22823 net.cpp:137] Memory required for data: 5589641800
I0713 13:18:34.807260 22823 layer_factory.hpp:77] Creating layer relu3_7
I0713 13:18:34.807284 22823 net.cpp:84] Creating Layer relu3_7
I0713 13:18:34.807301 22823 net.cpp:406] relu3_7 <- conv3_7
I0713 13:18:34.807358 22823 net.cpp:367] relu3_7 -> conv3_7 (in-place)
I0713 13:18:34.818883 22823 net.cpp:122] Setting up relu3_7
I0713 13:18:34.818919 22823 net.cpp:129] Top shape: 50 256 38 33 (16051200)
I0713 13:18:34.818936 22823 net.cpp:137] Memory required for data: 5653846600
I0713 13:18:34.818958 22823 layer_factory.hpp:77] Creating layer res3_7
I0713 13:18:34.819022 22823 net.cpp:84] Creating Layer res3_7
I0713 13:18:34.819042 22823 net.cpp:406] res3_7 <- res3_5_res3_5_0_split_1
I0713 13:18:34.819059 22823 net.cpp:406] res3_7 <- conv3_7
I0713 13:18:34.819078 22823 net.cpp:380] res3_7 -> res3_7
I0713 13:18:34.819166 22823 net.cpp:122] Setting up res3_7
I0713 13:18:34.819191 22823 net.cpp:129] Top shape: 50 256 38 33 (16051200)
I0713 13:18:34.819206 22823 net.cpp:137] Memory required for data: 5718051400
I0713 13:18:34.819222 22823 layer_factory.hpp:77] Creating layer res3_7_res3_7_0_split
I0713 13:18:34.819278 22823 net.cpp:84] Creating Layer res3_7_res3_7_0_split
I0713 13:18:34.819295 22823 net.cpp:406] res3_7_res3_7_0_split <- res3_7
I0713 13:18:34.819317 22823 net.cpp:380] res3_7_res3_7_0_split -> res3_7_res3_7_0_split_0
I0713 13:18:34.819339 22823 net.cpp:380] res3_7_res3_7_0_split -> res3_7_res3_7_0_split_1
I0713 13:18:34.819432 22823 net.cpp:122] Setting up res3_7_res3_7_0_split
I0713 13:18:34.819456 22823 net.cpp:129] Top shape: 50 256 38 33 (16051200)
I0713 13:18:34.819473 22823 net.cpp:129] Top shape: 50 256 38 33 (16051200)
I0713 13:18:34.819488 22823 net.cpp:137] Memory required for data: 5846461000
I0713 13:18:34.819538 22823 layer_factory.hpp:77] Creating layer conv3_8
I0713 13:18:34.819567 22823 net.cpp:84] Creating Layer conv3_8
I0713 13:18:34.819586 22823 net.cpp:406] conv3_8 <- res3_7_res3_7_0_split_0
I0713 13:18:34.819605 22823 net.cpp:380] conv3_8 -> conv3_8
I0713 13:18:34.832203 22823 net.cpp:122] Setting up conv3_8
I0713 13:18:34.832247 22823 net.cpp:129] Top shape: 50 256 38 33 (16051200)
I0713 13:18:34.832264 22823 net.cpp:137] Memory required for data: 5910665800
I0713 13:18:34.832286 22823 layer_factory.hpp:77] Creating layer relu3_8
I0713 13:18:34.832353 22823 net.cpp:84] Creating Layer relu3_8
I0713 13:18:34.832375 22823 net.cpp:406] relu3_8 <- conv3_8
I0713 13:18:34.832392 22823 net.cpp:367] relu3_8 -> conv3_8 (in-place)
I0713 13:18:34.834040 22823 net.cpp:122] Setting up relu3_8
I0713 13:18:34.834115 22823 net.cpp:129] Top shape: 50 256 38 33 (16051200)
I0713 13:18:34.834133 22823 net.cpp:137] Memory required for data: 5974870600
I0713 13:18:34.834153 22823 layer_factory.hpp:77] Creating layer conv3_9
I0713 13:18:34.834184 22823 net.cpp:84] Creating Layer conv3_9
I0713 13:18:34.834236 22823 net.cpp:406] conv3_9 <- conv3_8
I0713 13:18:34.834262 22823 net.cpp:380] conv3_9 -> conv3_9
I0713 13:18:34.842487 22823 net.cpp:122] Setting up conv3_9
I0713 13:18:34.842523 22823 net.cpp:129] Top shape: 50 256 38 33 (16051200)
I0713 13:18:34.842581 22823 net.cpp:137] Memory required for data: 6039075400
I0713 13:18:34.842605 22823 layer_factory.hpp:77] Creating layer relu3_9
I0713 13:18:34.842627 22823 net.cpp:84] Creating Layer relu3_9
I0713 13:18:34.842643 22823 net.cpp:406] relu3_9 <- conv3_9
I0713 13:18:34.842698 22823 net.cpp:367] relu3_9 -> conv3_9 (in-place)
I0713 13:18:34.845211 22823 net.cpp:122] Setting up relu3_9
I0713 13:18:34.845242 22823 net.cpp:129] Top shape: 50 256 38 33 (16051200)
I0713 13:18:34.845259 22823 net.cpp:137] Memory required for data: 6103280200
I0713 13:18:34.845319 22823 layer_factory.hpp:77] Creating layer res3_9
I0713 13:18:34.845346 22823 net.cpp:84] Creating Layer res3_9
I0713 13:18:34.845365 22823 net.cpp:406] res3_9 <- res3_7_res3_7_0_split_1
I0713 13:18:34.845381 22823 net.cpp:406] res3_9 <- conv3_9
I0713 13:18:34.845438 22823 net.cpp:380] res3_9 -> res3_9
I0713 13:18:34.845489 22823 net.cpp:122] Setting up res3_9
I0713 13:18:34.845512 22823 net.cpp:129] Top shape: 50 256 38 33 (16051200)
I0713 13:18:34.845527 22823 net.cpp:137] Memory required for data: 6167485000
I0713 13:18:34.845577 22823 layer_factory.hpp:77] Creating layer conv4_1
I0713 13:18:34.845607 22823 net.cpp:84] Creating Layer conv4_1
I0713 13:18:34.845625 22823 net.cpp:406] conv4_1 <- res3_9
I0713 13:18:34.845644 22823 net.cpp:380] conv4_1 -> conv4_1
I0713 13:18:34.855374 22823 net.cpp:122] Setting up conv4_1
I0713 13:18:34.855408 22823 net.cpp:129] Top shape: 50 512 19 17 (8268800)
I0713 13:18:34.855424 22823 net.cpp:137] Memory required for data: 6200560200
I0713 13:18:34.855445 22823 layer_factory.hpp:77] Creating layer relu4_1
I0713 13:18:34.855509 22823 net.cpp:84] Creating Layer relu4_1
I0713 13:18:34.855528 22823 net.cpp:406] relu4_1 <- conv4_1
I0713 13:18:34.855549 22823 net.cpp:367] relu4_1 -> conv4_1 (in-place)
I0713 13:18:34.855770 22823 net.cpp:122] Setting up relu4_1
I0713 13:18:34.855832 22823 net.cpp:129] Top shape: 50 512 19 17 (8268800)
I0713 13:18:34.855850 22823 net.cpp:137] Memory required for data: 6233635400
I0713 13:18:34.855868 22823 layer_factory.hpp:77] Creating layer conv4_1_relu4_1_0_split
I0713 13:18:34.855891 22823 net.cpp:84] Creating Layer conv4_1_relu4_1_0_split
I0713 13:18:34.855940 22823 net.cpp:406] conv4_1_relu4_1_0_split <- conv4_1
I0713 13:18:34.855964 22823 net.cpp:380] conv4_1_relu4_1_0_split -> conv4_1_relu4_1_0_split_0
I0713 13:18:34.855986 22823 net.cpp:380] conv4_1_relu4_1_0_split -> conv4_1_relu4_1_0_split_1
I0713 13:18:34.856077 22823 net.cpp:122] Setting up conv4_1_relu4_1_0_split
I0713 13:18:34.856102 22823 net.cpp:129] Top shape: 50 512 19 17 (8268800)
I0713 13:18:34.856119 22823 net.cpp:129] Top shape: 50 512 19 17 (8268800)
I0713 13:18:34.856134 22823 net.cpp:137] Memory required for data: 6299785800
I0713 13:18:34.856182 22823 layer_factory.hpp:77] Creating layer conv4_2
I0713 13:18:34.856211 22823 net.cpp:84] Creating Layer conv4_2
I0713 13:18:34.856230 22823 net.cpp:406] conv4_2 <- conv4_1_relu4_1_0_split_0
I0713 13:18:34.856250 22823 net.cpp:380] conv4_2 -> conv4_2
I0713 13:18:34.886476 22823 net.cpp:122] Setting up conv4_2
I0713 13:18:34.886512 22823 net.cpp:129] Top shape: 50 512 19 17 (8268800)
I0713 13:18:34.886528 22823 net.cpp:137] Memory required for data: 6332861000
I0713 13:18:34.886548 22823 layer_factory.hpp:77] Creating layer relu4_2
I0713 13:18:34.886612 22823 net.cpp:84] Creating Layer relu4_2
I0713 13:18:34.886632 22823 net.cpp:406] relu4_2 <- conv4_2
I0713 13:18:34.886651 22823 net.cpp:367] relu4_2 -> conv4_2 (in-place)
I0713 13:18:34.886888 22823 net.cpp:122] Setting up relu4_2
I0713 13:18:34.886951 22823 net.cpp:129] Top shape: 50 512 19 17 (8268800)
I0713 13:18:34.886970 22823 net.cpp:137] Memory required for data: 6365936200
I0713 13:18:34.886987 22823 layer_factory.hpp:77] Creating layer conv4_3
I0713 13:18:34.887014 22823 net.cpp:84] Creating Layer conv4_3
I0713 13:18:34.887065 22823 net.cpp:406] conv4_3 <- conv4_2
I0713 13:18:34.887091 22823 net.cpp:380] conv4_3 -> conv4_3
I0713 13:18:34.913257 22823 net.cpp:122] Setting up conv4_3
I0713 13:18:34.913295 22823 net.cpp:129] Top shape: 50 512 19 17 (8268800)
I0713 13:18:34.913312 22823 net.cpp:137] Memory required for data: 6399011400
I0713 13:18:34.913333 22823 layer_factory.hpp:77] Creating layer relu4_3
I0713 13:18:34.913399 22823 net.cpp:84] Creating Layer relu4_3
I0713 13:18:34.913419 22823 net.cpp:406] relu4_3 <- conv4_3
I0713 13:18:34.913439 22823 net.cpp:367] relu4_3 -> conv4_3 (in-place)
I0713 13:18:34.913704 22823 net.cpp:122] Setting up relu4_3
I0713 13:18:34.913767 22823 net.cpp:129] Top shape: 50 512 19 17 (8268800)
I0713 13:18:34.913784 22823 net.cpp:137] Memory required for data: 6432086600
I0713 13:18:34.913803 22823 layer_factory.hpp:77] Creating layer res4_3
I0713 13:18:34.913828 22823 net.cpp:84] Creating Layer res4_3
I0713 13:18:34.913878 22823 net.cpp:406] res4_3 <- conv4_1_relu4_1_0_split_1
I0713 13:18:34.913897 22823 net.cpp:406] res4_3 <- conv4_3
I0713 13:18:34.913916 22823 net.cpp:380] res4_3 -> res4_3
I0713 13:18:34.913966 22823 net.cpp:122] Setting up res4_3
I0713 13:18:34.914023 22823 net.cpp:129] Top shape: 50 512 19 17 (8268800)
I0713 13:18:34.914041 22823 net.cpp:137] Memory required for data: 6465161800
I0713 13:18:34.914057 22823 layer_factory.hpp:77] Creating layer pool1
I0713 13:18:34.914093 22823 net.cpp:84] Creating Layer pool1
I0713 13:18:34.914142 22823 net.cpp:406] pool1 <- res4_3
I0713 13:18:34.914163 22823 net.cpp:380] pool1 -> res4_3p
I0713 13:18:34.914371 22823 net.cpp:122] Setting up pool1
I0713 13:18:34.914402 22823 net.cpp:129] Top shape: 50 512 1 17 (435200)
I0713 13:18:34.914417 22823 net.cpp:137] Memory required for data: 6466902600
I0713 13:18:34.914469 22823 layer_factory.hpp:77] Creating layer fc5
I0713 13:18:34.914494 22823 net.cpp:84] Creating Layer fc5
I0713 13:18:34.914510 22823 net.cpp:406] fc5 <- res4_3p
I0713 13:18:34.914532 22823 net.cpp:380] fc5 -> fc5
I0713 13:18:34.945674 22823 net.cpp:122] Setting up fc5
I0713 13:18:34.945724 22823 net.cpp:129] Top shape: 50 512 (25600)
I0713 13:18:34.945742 22823 net.cpp:137] Memory required for data: 6467005000
I0713 13:18:34.945765 22823 layer_factory.hpp:77] Creating layer norm1
I0713 13:18:34.945839 22823 net.cpp:84] Creating Layer norm1
I0713 13:18:34.945859 22823 net.cpp:406] norm1 <- fc5
I0713 13:18:34.945881 22823 net.cpp:380] norm1 -> norm1
I0713 13:18:34.945966 22823 net.cpp:122] Setting up norm1
I0713 13:18:34.945991 22823 net.cpp:129] Top shape: 50 512 1 1 (25600)
I0713 13:18:34.946041 22823 net.cpp:137] Memory required for data: 6467107400
I0713 13:18:34.946059 22823 layer_factory.hpp:77] Creating layer fc6
I0713 13:18:34.946084 22823 net.cpp:84] Creating Layer fc6
I0713 13:18:34.946102 22823 net.cpp:406] fc6 <- norm1
I0713 13:18:34.946156 22823 net.cpp:380] fc6 -> fc6
I0713 13:18:34.950908 22823 net.cpp:122] Setting up fc6
I0713 13:18:34.950959 22823 net.cpp:129] Top shape: 50 1251 (62550)
I0713 13:18:34.950976 22823 net.cpp:137] Memory required for data: 6467357600
I0713 13:18:34.951038 22823 layer_factory.hpp:77] Creating layer fc6_fc6_0_split
I0713 13:18:34.951063 22823 net.cpp:84] Creating Layer fc6_fc6_0_split
I0713 13:18:34.951079 22823 net.cpp:406] fc6_fc6_0_split <- fc6
I0713 13:18:34.951102 22823 net.cpp:380] fc6_fc6_0_split -> fc6_fc6_0_split_0
I0713 13:18:34.951159 22823 net.cpp:380] fc6_fc6_0_split -> fc6_fc6_0_split_1
I0713 13:18:34.951182 22823 net.cpp:380] fc6_fc6_0_split -> fc6_fc6_0_split_2
I0713 13:18:34.951257 22823 net.cpp:122] Setting up fc6_fc6_0_split
I0713 13:18:34.951282 22823 net.cpp:129] Top shape: 50 1251 (62550)
I0713 13:18:34.951333 22823 net.cpp:129] Top shape: 50 1251 (62550)
I0713 13:18:34.951350 22823 net.cpp:129] Top shape: 50 1251 (62550)
I0713 13:18:34.951365 22823 net.cpp:137] Memory required for data: 6468108200
I0713 13:18:34.951380 22823 layer_factory.hpp:77] Creating layer fc6_scale
I0713 13:18:34.951432 22823 net.cpp:84] Creating Layer fc6_scale
I0713 13:18:34.951450 22823 net.cpp:406] fc6_scale <- fc6_fc6_0_split_0
I0713 13:18:34.951472 22823 net.cpp:380] fc6_scale -> fc6_scale
I0713 13:18:34.951544 22823 layer_factory.hpp:77] Creating layer fc6_scale
I0713 13:18:34.951728 22823 net.cpp:122] Setting up fc6_scale
I0713 13:18:34.951753 22823 net.cpp:129] Top shape: 50 1251 (62550)
I0713 13:18:34.951768 22823 net.cpp:137] Memory required for data: 6468358400
I0713 13:18:34.951797 22823 layer_factory.hpp:77] Creating layer label_scale_margin
I0713 13:18:34.951858 22823 net.cpp:84] Creating Layer label_scale_margin
I0713 13:18:34.951876 22823 net.cpp:406] label_scale_margin <- fc6_scale
I0713 13:18:34.951894 22823 net.cpp:406] label_scale_margin <- label_input_1_split_0
I0713 13:18:34.951915 22823 net.cpp:380] label_scale_margin -> fc6_scale_margin
I0713 13:18:34.951994 22823 net.cpp:122] Setting up label_scale_margin
I0713 13:18:34.952018 22823 net.cpp:129] Top shape: 50 1251 (62550)
I0713 13:18:34.952033 22823 net.cpp:137] Memory required for data: 6468608600
I0713 13:18:34.952050 22823 layer_factory.hpp:77] Creating layer softmax_loss
I0713 13:18:34.952103 22823 net.cpp:84] Creating Layer softmax_loss
I0713 13:18:34.952121 22823 net.cpp:406] softmax_loss <- fc6_scale_margin
I0713 13:18:34.952138 22823 net.cpp:406] softmax_loss <- label_input_1_split_1
I0713 13:18:34.952157 22823 net.cpp:380] softmax_loss -> softmax_loss
…
