…
I0225 12:40:07.983109  9295 upgrade_proto.cpp:70] Successfully upgraded file specified using deprecated input fields.
W0225 12:40:07.983124  9295 upgrade_proto.cpp:72] Note that future Caffe releases will only support input layers and not input fields.
I0225 12:40:07.983866  9295 net.cpp:51] Initializing net from parameters: 
name: "ResNet-20"
state {
  phase: TRAIN
}
layer {
  name: "input"
  type: "Input"
  top: "data"
  top: "label"
  input_param {
    shape {
      dim: 50
      dim: 1
      dim: 300
      dim: 257
    }
    shape {
      dim: 50
      dim: 1
      dim: 1
      dim: 1
    }
  }
}
layer {
  name: "conv1_1"
  type: "Convolution"
  bottom: "data"
  top: "conv1_1"
  param {
    lr_mult: 1
    decay_mult: 1
  }
  param {
    lr_mult: 2
    decay_mult: 0
  }
  convolution_param {
    num_output: 64
    pad: 1
    kernel_size: 3
    stride: 2
    weight_filler {
      type: "xavier"
    }
    bias_filler {
      type: "constant"
      value: 0
    }
  }
}
layer {
  name: "relu1_1"
  type: "PReLU"
  bottom: "conv1_1"
  top: "conv1_1"
}
layer {
  name: "conv1_2"
  type: "Convolution"
  bottom: "conv1_1"
  top: "conv1_2"
  param {
    lr_mult: 1
    decay_mult: 1
  }
  param {
    lr_mult: 0
    decay_mult: 0
  }
  convolution_param {
    num_output: 64
    pad: 1
    kernel_size: 3
    stride: 1
    weight_filler {
      type: "gaussian"
      std: 0.01
    }
    bias_filler {
      type: "constant"
      value: 0
    }
  }
}
layer {
  name: "relu1_2"
  type: "PReLU"
  bottom: "conv1_2"
  top: "conv1_2"
}
layer {
  name: "conv1_3"
  type: "Convolution"
  bottom: "conv1_2"
  top: "conv1_3"
  param {
    lr_mult: 1
    decay_mult: 1
  }
  param {
    lr_mult: 0
    decay_mult: 0
  }
  convolution_param {
    num_output: 64
    pad: 1
    kernel_size: 3
    stride: 1
    weight_filler {
      type: "gaussian"
      std: 0.01
    }
    bias_filler {
      type: "constant"
      value: 0
    }
  }
}
layer {
  name: "relu1_3"
  type: "PReLU"
  bottom: "conv1_3"
  top: "conv1_3"
}
layer {
  name: "res1_3"
  type: "Eltwise"
  bottom: "conv1_1"
  bottom: "conv1_3"
  top: "res1_3"
  eltwise_param {
    operation: SUM
  }
}
layer {
  name: "conv2_1"
  type: "Convolution"
  bottom: "res1_3"
  top: "conv2_1"
  param {
    lr_mult: 1
    decay_mult: 1
  }
  param {
    lr_mult: 2
    decay_mult: 0
  }
  convolution_param {
    num_output: 128
    pad: 1
    kernel_size: 3
    stride: 2
    weight_filler {
      type: "xavier"
    }
    bias_filler {
      type: "constant"
      value: 0
    }
  }
}
layer {
  name: "relu2_1"
  type: "PReLU"
  bottom: "conv2_1"
  top: "conv2_1"
}
layer {
  name: "conv2_2"
  type: "Convolution"
  bottom: "conv2_1"
  top: "conv2_2"
  param {
    lr_mult: 1
    decay_mult: 1
  }
  param {
    lr_mult: 0
    decay_mult: 0
  }
  convolution_param {
    num_output: 128
    pad: 1
    kernel_size: 3
    stride: 1
    weight_filler {
      type: "gaussian"
      std: 0.01
    }
    bias_filler {
      type: "constant"
      value: 0
    }
  }
}
layer {
  name: "relu2_2"
  type: "PReLU"
  bottom: "conv2_2"
  top: "conv2_2"
}
layer {
  name: "conv2_3"
  type: "Convolution"
  bottom: "conv2_2"
  top: "conv2_3"
  param {
    lr_mult: 1
    decay_mult: 1
  }
  param {
    lr_mult: 0
    decay_mult: 0
  }
  convolution_param {
    num_output: 128
    pad: 1
    kernel_size: 3
    stride: 1
    weight_filler {
      type: "gaussian"
      std: 0.01
    }
    bias_filler {
      type: "constant"
      value: 0
    }
  }
}
layer {
  name: "relu2_3"
  type: "PReLU"
  bottom: "conv2_3"
  top: "conv2_3"
}
layer {
  name: "res2_3"
  type: "Eltwise"
  bottom: "conv2_1"
  bottom: "conv2_3"
  top: "res2_3"
  eltwise_param {
    operation: SUM
  }
}
layer {
  name: "conv2_4"
  type: "Convolution"
  bottom: "res2_3"
  top: "conv2_4"
  param {
    lr_mult: 1
    decay_mult: 1
  }
  param {
    lr_mult: 0
    decay_mult: 0
  }
  convolution_param {
    num_output: 128
    pad: 1
    kernel_size: 3
    stride: 1
    weight_filler {
      type: "gaussian"
      std: 0.01
    }
    bias_filler {
      type: "constant"
      value: 0
    }
  }
}
layer {
  name: "relu2_4"
  type: "PReLU"
  bottom: "conv2_4"
  top: "conv2_4"
}
layer {
  name: "conv2_5"
  type: "Convolution"
  bottom: "conv2_4"
  top: "conv2_5"
  param {
    lr_mult: 1
    decay_mult: 1
  }
  param {
    lr_mult: 0
    decay_mult: 0
  }
  convolution_param {
    num_output: 128
    pad: 1
    kernel_size: 3
    stride: 1
    weight_filler {
      type: "gaussian"
      std: 0.01
    }
    bias_filler {
      type: "constant"
      value: 0
    }
  }
}
layer {
  name: "relu2_5"
  type: "PReLU"
  bottom: "conv2_5"
  top: "conv2_5"
}
layer {
  name: "res2_5"
  type: "Eltwise"
  bottom: "res2_3"
  bottom: "conv2_5"
  top: "res2_5"
  eltwise_param {
    operation: SUM
  }
}
layer {
  name: "conv3_1"
  type: "Convolution"
  bottom: "res2_5"
  top: "conv3_1"
  param {
    lr_mult: 1
    decay_mult: 1
  }
  param {
    lr_mult: 2
    decay_mult: 0
  }
  convolution_param {
    num_output: 256
    pad: 1
    kernel_size: 3
    stride: 2
    weight_filler {
      type: "xavier"
    }
    bias_filler {
      type: "constant"
      value: 0
    }
  }
}
layer {
  name: "relu3_1"
  type: "PReLU"
  bottom: "conv3_1"
  top: "conv3_1"
}
layer {
  name: "conv3_2"
  type: "Convolution"
  bottom: "conv3_1"
  top: "conv3_2"
  param {
    lr_mult: 1
    decay_mult: 1
  }
  param {
    lr_mult: 0
    decay_mult: 0
  }
  convolution_param {
    num_output: 256
    pad: 1
    kernel_size: 3
    stride: 1
    weight_filler {
      type: "gaussian"
      std: 0.01
    }
    bias_filler {
      type: "constant"
      value: 0
    }
  }
}
layer {
  name: "relu3_2"
  type: "PReLU"
  bottom: "conv3_2"
  top: "conv3_2"
}
layer {
  name: "conv3_3"
  type: "Convolution"
  bottom: "conv3_2"
  top: "conv3_3"
  param {
    lr_mult: 1
    decay_mult: 1
  }
  param {
    lr_mult: 0
    decay_mult: 0
  }
  convolution_param {
    num_output: 256
    pad: 1
    kernel_size: 3
    stride: 1
    weight_filler {
      type: "gaussian"
      std: 0.01
    }
    bias_filler {
      type: "constant"
      value: 0
    }
  }
}
layer {
  name: "relu3_3"
  type: "PReLU"
  bottom: "conv3_3"
  top: "conv3_3"
}
layer {
  name: "res3_3"
  type: "Eltwise"
  bottom: "conv3_1"
  bottom: "conv3_3"
  top: "res3_3"
  eltwise_param {
    operation: SUM
  }
}
layer {
  name: "conv3_4"
  type: "Convolution"
  bottom: "res3_3"
  top: "conv3_4"
  param {
    lr_mult: 1
    decay_mult: 1
  }
  param {
    lr_mult: 0
    decay_mult: 0
  }
  convolution_param {
    num_output: 256
    pad: 1
    kernel_size: 3
    stride: 1
    weight_filler {
      type: "gaussian"
      std: 0.01
    }
    bias_filler {
      type: "constant"
      value: 0
    }
  }
}
layer {
  name: "relu3_4"
  type: "PReLU"
  bottom: "conv3_4"
  top: "conv3_4"
}
layer {
  name: "conv3_5"
  type: "Convolution"
  bottom: "conv3_4"
  top: "conv3_5"
  param {
    lr_mult: 1
    decay_mult: 1
  }
  param {
    lr_mult: 0
    decay_mult: 0
  }
  convolution_param {
    num_output: 256
    pad: 1
    kernel_size: 3
    stride: 1
    weight_filler {
      type: "gaussian"
      std: 0.01
    }
    bias_filler {
      type: "constant"
      value: 0
    }
  }
}
layer {
  name: "relu3_5"
  type: "PReLU"
  bottom: "conv3_5"
  top: "conv3_5"
}
layer {
  name: "res3_5"
  type: "Eltwise"
  bottom: "res3_3"
  bottom: "conv3_5"
  top: "res3_5"
  eltwise_param {
    operation: SUM
  }
}
layer {
  name: "conv3_6"
  type: "Convolution"
  bottom: "res3_5"
  top: "conv3_6"
  param {
    lr_mult: 1
    decay_mult: 1
  }
  param {
    lr_mult: 0
    decay_mult: 0
  }
  convolution_param {
    num_output: 256
    pad: 1
    kernel_size: 3
    stride: 1
    weight_filler {
      type: "gaussian"
      std: 0.01
    }
    bias_filler {
      type: "constant"
      value: 0
    }
  }
}
layer {
  name: "relu3_6"
  type: "PReLU"
  bottom: "conv3_6"
  top: "conv3_6"
}
layer {
  name: "conv3_7"
  type: "Convolution"
  bottom: "conv3_6"
  top: "conv3_7"
  param {
    lr_mult: 1
    decay_mult: 1
  }
  param {
    lr_mult: 0
    decay_mult: 0
  }
  convolution_param {
    num_output: 256
    pad: 1
    kernel_size: 3
    stride: 1
    weight_filler {
      type: "gaussian"
      std: 0.01
    }
    bias_filler {
      type: "constant"
      value: 0
    }
  }
}
layer {
  name: "relu3_7"
  type: "PReLU"
  bottom: "conv3_7"
  top: "conv3_7"
}
layer {
  name: "res3_7"
  type: "Eltwise"
  bottom: "res3_5"
  bottom: "conv3_7"
  top: "res3_7"
  eltwise_param {
    operation: SUM
  }
}
layer {
  name: "conv3_8"
  type: "Convolution"
  bottom: "res3_7"
  top: "conv3_8"
  param {
    lr_mult: 1
    decay_mult: 1
  }
  param {
    lr_mult: 0
    decay_mult: 0
  }
  convolution_param {
    num_output: 256
    pad: 1
    kernel_size: 3
    stride: 1
    weight_filler {
      type: "gaussian"
      std: 0.01
    }
    bias_filler {
      type: "constant"
      value: 0
    }
  }
}
layer {
  name: "relu3_8"
  type: "PReLU"
  bottom: "conv3_8"
  top: "conv3_8"
}
layer {
  name: "conv3_9"
  type: "Convolution"
  bottom: "conv3_8"
  top: "conv3_9"
  param {
    lr_mult: 1
    decay_mult: 1
  }
  param {
    lr_mult: 0
    decay_mult: 0
  }
  convolution_param {
    num_output: 256
    pad: 1
    kernel_size: 3
    stride: 1
    weight_filler {
      type: "gaussian"
      std: 0.01
    }
    bias_filler {
      type: "constant"
      value: 0
    }
  }
}
layer {
  name: "relu3_9"
  type: "PReLU"
  bottom: "conv3_9"
  top: "conv3_9"
}
layer {
  name: "res3_9"
  type: "Eltwise"
  bottom: "res3_7"
  bottom: "conv3_9"
  top: "res3_9"
  eltwise_param {
    operation: SUM
  }
}
layer {
  name: "conv4_1"
  type: "Convolution"
  bottom: "res3_9"
  top: "conv4_1"
  param {
    lr_mult: 1
    decay_mult: 1
  }
  param {
    lr_mult: 2
    decay_mult: 0
  }
  convolution_param {
    num_output: 512
    pad: 1
    kernel_size: 3
    stride: 2
    weight_filler {
      type: "xavier"
    }
    bias_filler {
      type: "constant"
      value: 0
    }
  }
}
layer {
  name: "relu4_1"
  type: "PReLU"
  bottom: "conv4_1"
  top: "conv4_1"
}
layer {
  name: "conv4_2"
  type: "Convolution"
  bottom: "conv4_1"
  top: "conv4_2"
  param {
    lr_mult: 1
    decay_mult: 1
  }
  param {
    lr_mult: 0
    decay_mult: 0
  }
  convolution_param {
    num_output: 512
    pad: 1
    kernel_size: 3
    stride: 1
    weight_filler {
      type: "gaussian"
      std: 0.01
    }
    bias_filler {
      type: "constant"
      value: 0
    }
  }
}
layer {
  name: "relu4_2"
  type: "PReLU"
  bottom: "conv4_2"
  top: "conv4_2"
}
layer {
  name: "conv4_3"
  type: "Convolution"
  bottom: "conv4_2"
  top: "conv4_3"
  param {
    lr_mult: 1
    decay_mult: 1
  }
  param {
    lr_mult: 0
    decay_mult: 0
  }
  convolution_param {
    num_output: 512
    pad: 1
    kernel_size: 3
    stride: 1
    weight_filler {
      type: "gaussian"
      std: 0.01
    }
    bias_filler {
      type: "constant"
      value: 0
    }
  }
}
layer {
  name: "relu4_3"
  type: "PReLU"
  bottom: "conv4_3"
  top: "conv4_3"
}
layer {
  name: "res4_3"
  type: "Eltwise"
  bottom: "conv4_1"
  bottom: "conv4_3"
  top: "res4_3"
  eltwise_param {
    operation: SUM
  }
}
layer {
  name: "pool1"
  type: "Pooling"
  bottom: "res4_3"
  top: "res4_3p"
  pooling_param {
    pool: AVE
    kernel_h: 19
    kernel_w: 1
  }
}
layer {
  name: "fc5"
  type: "InnerProduct"
  bottom: "res4_3p"
  top: "fc5"
  param {
    lr_mult: 2
    decay_mult: 2
  }
  param {
    lr_mult: 2
    decay_mult: 0
  }
  inner_product_param {
    num_output: 512
    weight_filler {
      type: "xavier"
    }
    bias_filler {
      type: "constant"
      value: 0
    }
  }
}
layer {
  name: "fc6"
  type: "InnerProduct"
  bottom: "fc5"
  top: "fc6"
  param {
    lr_mult: 1
    decay_mult: 1
  }
  param {
    lr_mult: 2
    decay_mult: 0
  }
  inner_product_param {
    num_output: 1251
    weight_filler {
      type: "xavier"
    }
    bias_filler {
      type: "constant"
      value: 0
    }
  }
}
layer {
  name: "softmax_loss"
  type: "SoftmaxWithLoss"
  bottom: "fc6"
  bottom: "label"
  top: "softmax_loss"
}
layer {
  name: "top1Accuracy"
  type: "Accuracy"
  bottom: "fc6"
  bottom: "label"
  top: "top1Accuracy"
}
layer {
  name: "top5Accuracy"
  type: "Accuracy"
  bottom: "fc6"
  bottom: "label"
  top: "top5Accuracy"
  accuracy_param {
    top_k: 5
  }
}
I0225 12:40:07.984238  9295 layer_factory.hpp:77] Creating layer input
I0225 12:40:07.984268  9295 net.cpp:84] Creating Layer input
I0225 12:40:07.984300  9295 net.cpp:380] input -> data
I0225 12:40:07.984369  9295 net.cpp:380] input -> label
I0225 12:40:07.986814  9295 net.cpp:122] Setting up input
I0225 12:40:07.986840  9295 net.cpp:129] Top shape: 50 1 300 257 (3855000)
I0225 12:40:07.986855  9295 net.cpp:129] Top shape: 50 1 1 1 (50)
I0225 12:40:07.986866  9295 net.cpp:137] Memory required for data: 15420200
I0225 12:40:07.986881  9295 layer_factory.hpp:77] Creating layer label_input_1_split
I0225 12:40:07.986898  9295 net.cpp:84] Creating Layer label_input_1_split
I0225 12:40:07.986933  9295 net.cpp:406] label_input_1_split <- label
I0225 12:40:07.986960  9295 net.cpp:380] label_input_1_split -> label_input_1_split_0
I0225 12:40:07.986980  9295 net.cpp:380] label_input_1_split -> label_input_1_split_1
I0225 12:40:07.986999  9295 net.cpp:380] label_input_1_split -> label_input_1_split_2
I0225 12:40:07.987076  9295 net.cpp:122] Setting up label_input_1_split
I0225 12:40:07.987093  9295 net.cpp:129] Top shape: 50 1 1 1 (50)
I0225 12:40:07.987108  9295 net.cpp:129] Top shape: 50 1 1 1 (50)
I0225 12:40:07.987123  9295 net.cpp:129] Top shape: 50 1 1 1 (50)
I0225 12:40:07.987134  9295 net.cpp:137] Memory required for data: 15420800
I0225 12:40:07.987164  9295 layer_factory.hpp:77] Creating layer conv1_1
I0225 12:40:07.987223  9295 net.cpp:84] Creating Layer conv1_1
I0225 12:40:07.987237  9295 net.cpp:406] conv1_1 <- data
I0225 12:40:07.987272  9295 net.cpp:380] conv1_1 -> conv1_1
I0225 12:40:10.635409  9295 net.cpp:122] Setting up conv1_1
I0225 12:40:10.635455  9295 net.cpp:129] Top shape: 50 64 150 129 (61920000)
I0225 12:40:10.635470  9295 net.cpp:137] Memory required for data: 263100800
I0225 12:40:10.635500  9295 layer_factory.hpp:77] Creating layer relu1_1
I0225 12:40:10.635545  9295 net.cpp:84] Creating Layer relu1_1
I0225 12:40:10.635562  9295 net.cpp:406] relu1_1 <- conv1_1
I0225 12:40:10.635588  9295 net.cpp:367] relu1_1 -> conv1_1 (in-place)
I0225 12:40:10.642273  9295 net.cpp:122] Setting up relu1_1
I0225 12:40:10.642308  9295 net.cpp:129] Top shape: 50 64 150 129 (61920000)
I0225 12:40:10.642323  9295 net.cpp:137] Memory required for data: 510780800
I0225 12:40:10.642416  9295 layer_factory.hpp:77] Creating layer conv1_1_relu1_1_0_split
I0225 12:40:10.642437  9295 net.cpp:84] Creating Layer conv1_1_relu1_1_0_split
I0225 12:40:10.642452  9295 net.cpp:406] conv1_1_relu1_1_0_split <- conv1_1
I0225 12:40:10.642469  9295 net.cpp:380] conv1_1_relu1_1_0_split -> conv1_1_relu1_1_0_split_0
I0225 12:40:10.642495  9295 net.cpp:380] conv1_1_relu1_1_0_split -> conv1_1_relu1_1_0_split_1
I0225 12:40:10.642701  9295 net.cpp:122] Setting up conv1_1_relu1_1_0_split
I0225 12:40:10.642722  9295 net.cpp:129] Top shape: 50 64 150 129 (61920000)
I0225 12:40:10.642737  9295 net.cpp:129] Top shape: 50 64 150 129 (61920000)
I0225 12:40:10.642823  9295 net.cpp:137] Memory required for data: 1006140800
I0225 12:40:10.642838  9295 layer_factory.hpp:77] Creating layer conv1_2
I0225 12:40:10.642868  9295 net.cpp:84] Creating Layer conv1_2
I0225 12:40:10.642884  9295 net.cpp:406] conv1_2 <- conv1_1_relu1_1_0_split_0
I0225 12:40:10.642907  9295 net.cpp:380] conv1_2 -> conv1_2
I0225 12:40:10.647006  9295 net.cpp:122] Setting up conv1_2
I0225 12:40:10.647037  9295 net.cpp:129] Top shape: 50 64 150 129 (61920000)
I0225 12:40:10.647051  9295 net.cpp:137] Memory required for data: 1253820800
I0225 12:40:10.647071  9295 layer_factory.hpp:77] Creating layer relu1_2
I0225 12:40:10.647094  9295 net.cpp:84] Creating Layer relu1_2
I0225 12:40:10.647109  9295 net.cpp:406] relu1_2 <- conv1_2
I0225 12:40:10.647125  9295 net.cpp:367] relu1_2 -> conv1_2 (in-place)
I0225 12:40:10.652113  9295 net.cpp:122] Setting up relu1_2
I0225 12:40:10.652142  9295 net.cpp:129] Top shape: 50 64 150 129 (61920000)
I0225 12:40:10.652154  9295 net.cpp:137] Memory required for data: 1501500800
I0225 12:40:10.652171  9295 layer_factory.hpp:77] Creating layer conv1_3
I0225 12:40:10.652197  9295 net.cpp:84] Creating Layer conv1_3
I0225 12:40:10.652212  9295 net.cpp:406] conv1_3 <- conv1_2
I0225 12:40:10.652230  9295 net.cpp:380] conv1_3 -> conv1_3
I0225 12:40:10.657203  9295 net.cpp:122] Setting up conv1_3
I0225 12:40:10.657230  9295 net.cpp:129] Top shape: 50 64 150 129 (61920000)
I0225 12:40:10.657243  9295 net.cpp:137] Memory required for data: 1749180800
I0225 12:40:10.657261  9295 layer_factory.hpp:77] Creating layer relu1_3
I0225 12:40:10.657281  9295 net.cpp:84] Creating Layer relu1_3
I0225 12:40:10.657295  9295 net.cpp:406] relu1_3 <- conv1_3
I0225 12:40:10.657311  9295 net.cpp:367] relu1_3 -> conv1_3 (in-place)
I0225 12:40:10.662441  9295 net.cpp:122] Setting up relu1_3
I0225 12:40:10.662472  9295 net.cpp:129] Top shape: 50 64 150 129 (61920000)
I0225 12:40:10.662487  9295 net.cpp:137] Memory required for data: 1996860800
I0225 12:40:10.662504  9295 layer_factory.hpp:77] Creating layer res1_3
I0225 12:40:10.662523  9295 net.cpp:84] Creating Layer res1_3
I0225 12:40:10.662537  9295 net.cpp:406] res1_3 <- conv1_1_relu1_1_0_split_1
I0225 12:40:10.662551  9295 net.cpp:406] res1_3 <- conv1_3
I0225 12:40:10.662565  9295 net.cpp:380] res1_3 -> res1_3
I0225 12:40:10.662617  9295 net.cpp:122] Setting up res1_3
I0225 12:40:10.662634  9295 net.cpp:129] Top shape: 50 64 150 129 (61920000)
I0225 12:40:10.662647  9295 net.cpp:137] Memory required for data: 2244540800
I0225 12:40:10.662658  9295 layer_factory.hpp:77] Creating layer conv2_1
I0225 12:40:10.662678  9295 net.cpp:84] Creating Layer conv2_1
I0225 12:40:10.662691  9295 net.cpp:406] conv2_1 <- res1_3
I0225 12:40:10.662709  9295 net.cpp:380] conv2_1 -> conv2_1
I0225 12:40:10.675768  9295 net.cpp:122] Setting up conv2_1
I0225 12:40:10.675788  9295 net.cpp:129] Top shape: 50 128 75 65 (31200000)
I0225 12:40:10.675797  9295 net.cpp:137] Memory required for data: 2369340800
I0225 12:40:10.675824  9295 layer_factory.hpp:77] Creating layer relu2_1
I0225 12:40:10.675838  9295 net.cpp:84] Creating Layer relu2_1
I0225 12:40:10.675848  9295 net.cpp:406] relu2_1 <- conv2_1
I0225 12:40:10.675859  9295 net.cpp:367] relu2_1 -> conv2_1 (in-place)
I0225 12:40:10.678021  9295 net.cpp:122] Setting up relu2_1
I0225 12:40:10.678041  9295 net.cpp:129] Top shape: 50 128 75 65 (31200000)
I0225 12:40:10.678050  9295 net.cpp:137] Memory required for data: 2494140800
I0225 12:40:10.678061  9295 layer_factory.hpp:77] Creating layer conv2_1_relu2_1_0_split
I0225 12:40:10.678076  9295 net.cpp:84] Creating Layer conv2_1_relu2_1_0_split
I0225 12:40:10.678084  9295 net.cpp:406] conv2_1_relu2_1_0_split <- conv2_1
I0225 12:40:10.678095  9295 net.cpp:380] conv2_1_relu2_1_0_split -> conv2_1_relu2_1_0_split_0
I0225 12:40:10.678108  9295 net.cpp:380] conv2_1_relu2_1_0_split -> conv2_1_relu2_1_0_split_1
I0225 12:40:10.678165  9295 net.cpp:122] Setting up conv2_1_relu2_1_0_split
I0225 12:40:10.678179  9295 net.cpp:129] Top shape: 50 128 75 65 (31200000)
I0225 12:40:10.678189  9295 net.cpp:129] Top shape: 50 128 75 65 (31200000)
I0225 12:40:10.678196  9295 net.cpp:137] Memory required for data: 2743740800
I0225 12:40:10.678205  9295 layer_factory.hpp:77] Creating layer conv2_2
I0225 12:40:10.678233  9295 net.cpp:84] Creating Layer conv2_2
I0225 12:40:10.678251  9295 net.cpp:406] conv2_2 <- conv2_1_relu2_1_0_split_0
I0225 12:40:10.678263  9295 net.cpp:380] conv2_2 -> conv2_2
I0225 12:40:10.682590  9295 net.cpp:122] Setting up conv2_2
I0225 12:40:10.682610  9295 net.cpp:129] Top shape: 50 128 75 65 (31200000)
I0225 12:40:10.682618  9295 net.cpp:137] Memory required for data: 2868540800
I0225 12:40:10.682631  9295 layer_factory.hpp:77] Creating layer relu2_2
I0225 12:40:10.682644  9295 net.cpp:84] Creating Layer relu2_2
I0225 12:40:10.682654  9295 net.cpp:406] relu2_2 <- conv2_2
I0225 12:40:10.682668  9295 net.cpp:367] relu2_2 -> conv2_2 (in-place)
I0225 12:40:10.684859  9295 net.cpp:122] Setting up relu2_2
I0225 12:40:10.684881  9295 net.cpp:129] Top shape: 50 128 75 65 (31200000)
I0225 12:40:10.684890  9295 net.cpp:137] Memory required for data: 2993340800
I0225 12:40:10.684902  9295 layer_factory.hpp:77] Creating layer conv2_3
I0225 12:40:10.684921  9295 net.cpp:84] Creating Layer conv2_3
I0225 12:40:10.684932  9295 net.cpp:406] conv2_3 <- conv2_2
I0225 12:40:10.684943  9295 net.cpp:380] conv2_3 -> conv2_3
I0225 12:40:10.689291  9295 net.cpp:122] Setting up conv2_3
I0225 12:40:10.689309  9295 net.cpp:129] Top shape: 50 128 75 65 (31200000)
I0225 12:40:10.689318  9295 net.cpp:137] Memory required for data: 3118140800
I0225 12:40:10.689332  9295 layer_factory.hpp:77] Creating layer relu2_3
I0225 12:40:10.689353  9295 net.cpp:84] Creating Layer relu2_3
I0225 12:40:10.689364  9295 net.cpp:406] relu2_3 <- conv2_3
I0225 12:40:10.689375  9295 net.cpp:367] relu2_3 -> conv2_3 (in-place)
I0225 12:40:10.691514  9295 net.cpp:122] Setting up relu2_3
I0225 12:40:10.691532  9295 net.cpp:129] Top shape: 50 128 75 65 (31200000)
I0225 12:40:10.691541  9295 net.cpp:137] Memory required for data: 3242940800
I0225 12:40:10.691553  9295 layer_factory.hpp:77] Creating layer res2_3
I0225 12:40:10.691567  9295 net.cpp:84] Creating Layer res2_3
I0225 12:40:10.691577  9295 net.cpp:406] res2_3 <- conv2_1_relu2_1_0_split_1
I0225 12:40:10.691587  9295 net.cpp:406] res2_3 <- conv2_3
I0225 12:40:10.691598  9295 net.cpp:380] res2_3 -> res2_3
I0225 12:40:10.691637  9295 net.cpp:122] Setting up res2_3
I0225 12:40:10.691651  9295 net.cpp:129] Top shape: 50 128 75 65 (31200000)
I0225 12:40:10.691659  9295 net.cpp:137] Memory required for data: 3367740800
I0225 12:40:10.691668  9295 layer_factory.hpp:77] Creating layer res2_3_res2_3_0_split
I0225 12:40:10.691682  9295 net.cpp:84] Creating Layer res2_3_res2_3_0_split
I0225 12:40:10.691691  9295 net.cpp:406] res2_3_res2_3_0_split <- res2_3
I0225 12:40:10.691702  9295 net.cpp:380] res2_3_res2_3_0_split -> res2_3_res2_3_0_split_0
I0225 12:40:10.691715  9295 net.cpp:380] res2_3_res2_3_0_split -> res2_3_res2_3_0_split_1
I0225 12:40:10.691756  9295 net.cpp:122] Setting up res2_3_res2_3_0_split
I0225 12:40:10.691768  9295 net.cpp:129] Top shape: 50 128 75 65 (31200000)
I0225 12:40:10.691777  9295 net.cpp:129] Top shape: 50 128 75 65 (31200000)
I0225 12:40:10.691785  9295 net.cpp:137] Memory required for data: 3617340800
I0225 12:40:10.691793  9295 layer_factory.hpp:77] Creating layer conv2_4
I0225 12:40:10.691810  9295 net.cpp:84] Creating Layer conv2_4
I0225 12:40:10.691820  9295 net.cpp:406] conv2_4 <- res2_3_res2_3_0_split_0
I0225 12:40:10.691831  9295 net.cpp:380] conv2_4 -> conv2_4
I0225 12:40:10.698858  9295 net.cpp:122] Setting up conv2_4
I0225 12:40:10.698877  9295 net.cpp:129] Top shape: 50 128 75 65 (31200000)
I0225 12:40:10.698887  9295 net.cpp:137] Memory required for data: 3742140800
I0225 12:40:10.698900  9295 layer_factory.hpp:77] Creating layer relu2_4
I0225 12:40:10.698913  9295 net.cpp:84] Creating Layer relu2_4
I0225 12:40:10.698925  9295 net.cpp:406] relu2_4 <- conv2_4
I0225 12:40:10.698935  9295 net.cpp:367] relu2_4 -> conv2_4 (in-place)
I0225 12:40:10.701197  9295 net.cpp:122] Setting up relu2_4
I0225 12:40:10.701217  9295 net.cpp:129] Top shape: 50 128 75 65 (31200000)
I0225 12:40:10.701226  9295 net.cpp:137] Memory required for data: 3866940800
I0225 12:40:10.701237  9295 layer_factory.hpp:77] Creating layer conv2_5
I0225 12:40:10.701261  9295 net.cpp:84] Creating Layer conv2_5
I0225 12:40:10.701272  9295 net.cpp:406] conv2_5 <- conv2_4
I0225 12:40:10.701283  9295 net.cpp:380] conv2_5 -> conv2_5
I0225 12:40:10.707801  9295 net.cpp:122] Setting up conv2_5
I0225 12:40:10.707829  9295 net.cpp:129] Top shape: 50 128 75 65 (31200000)
I0225 12:40:10.707839  9295 net.cpp:137] Memory required for data: 3991740800
I0225 12:40:10.707851  9295 layer_factory.hpp:77] Creating layer relu2_5
I0225 12:40:10.707864  9295 net.cpp:84] Creating Layer relu2_5
I0225 12:40:10.707875  9295 net.cpp:406] relu2_5 <- conv2_5
I0225 12:40:10.707888  9295 net.cpp:367] relu2_5 -> conv2_5 (in-place)
I0225 12:40:10.710113  9295 net.cpp:122] Setting up relu2_5
I0225 12:40:10.710131  9295 net.cpp:129] Top shape: 50 128 75 65 (31200000)
I0225 12:40:10.710152  9295 net.cpp:137] Memory required for data: 4116540800
I0225 12:40:10.710165  9295 layer_factory.hpp:77] Creating layer res2_5
I0225 12:40:10.710181  9295 net.cpp:84] Creating Layer res2_5
I0225 12:40:10.710191  9295 net.cpp:406] res2_5 <- res2_3_res2_3_0_split_1
I0225 12:40:10.710202  9295 net.cpp:406] res2_5 <- conv2_5
I0225 12:40:10.710213  9295 net.cpp:380] res2_5 -> res2_5
I0225 12:40:10.710252  9295 net.cpp:122] Setting up res2_5
I0225 12:40:10.710264  9295 net.cpp:129] Top shape: 50 128 75 65 (31200000)
I0225 12:40:10.710273  9295 net.cpp:137] Memory required for data: 4241340800
I0225 12:40:10.710281  9295 layer_factory.hpp:77] Creating layer conv3_1
I0225 12:40:10.710299  9295 net.cpp:84] Creating Layer conv3_1
I0225 12:40:10.710309  9295 net.cpp:406] conv3_1 <- res2_5
I0225 12:40:10.710319  9295 net.cpp:380] conv3_1 -> conv3_1
I0225 12:40:10.715837  9295 net.cpp:122] Setting up conv3_1
I0225 12:40:10.715857  9295 net.cpp:129] Top shape: 50 256 38 33 (16051200)
I0225 12:40:10.715865  9295 net.cpp:137] Memory required for data: 4305545600
I0225 12:40:10.715878  9295 layer_factory.hpp:77] Creating layer relu3_1
I0225 12:40:10.715891  9295 net.cpp:84] Creating Layer relu3_1
I0225 12:40:10.715901  9295 net.cpp:406] relu3_1 <- conv3_1
I0225 12:40:10.715917  9295 net.cpp:367] relu3_1 -> conv3_1 (in-place)
I0225 12:40:10.717774  9295 net.cpp:122] Setting up relu3_1
I0225 12:40:10.717792  9295 net.cpp:129] Top shape: 50 256 38 33 (16051200)
I0225 12:40:10.717802  9295 net.cpp:137] Memory required for data: 4369750400
I0225 12:40:10.717813  9295 layer_factory.hpp:77] Creating layer conv3_1_relu3_1_0_split
I0225 12:40:10.717828  9295 net.cpp:84] Creating Layer conv3_1_relu3_1_0_split
I0225 12:40:10.717839  9295 net.cpp:406] conv3_1_relu3_1_0_split <- conv3_1
I0225 12:40:10.717850  9295 net.cpp:380] conv3_1_relu3_1_0_split -> conv3_1_relu3_1_0_split_0
I0225 12:40:10.717864  9295 net.cpp:380] conv3_1_relu3_1_0_split -> conv3_1_relu3_1_0_split_1
I0225 12:40:10.717914  9295 net.cpp:122] Setting up conv3_1_relu3_1_0_split
I0225 12:40:10.717927  9295 net.cpp:129] Top shape: 50 256 38 33 (16051200)
I0225 12:40:10.717936  9295 net.cpp:129] Top shape: 50 256 38 33 (16051200)
I0225 12:40:10.717944  9295 net.cpp:137] Memory required for data: 4498160000
I0225 12:40:10.717953  9295 layer_factory.hpp:77] Creating layer conv3_2
I0225 12:40:10.717967  9295 net.cpp:84] Creating Layer conv3_2
I0225 12:40:10.717977  9295 net.cpp:406] conv3_2 <- conv3_1_relu3_1_0_split_0
I0225 12:40:10.717990  9295 net.cpp:380] conv3_2 -> conv3_2
I0225 12:40:10.730849  9295 net.cpp:122] Setting up conv3_2
I0225 12:40:10.730868  9295 net.cpp:129] Top shape: 50 256 38 33 (16051200)
I0225 12:40:10.730877  9295 net.cpp:137] Memory required for data: 4562364800
I0225 12:40:10.730895  9295 layer_factory.hpp:77] Creating layer relu3_2
I0225 12:40:10.730908  9295 net.cpp:84] Creating Layer relu3_2
I0225 12:40:10.730918  9295 net.cpp:406] relu3_2 <- conv3_2
I0225 12:40:10.730929  9295 net.cpp:367] relu3_2 -> conv3_2 (in-place)
I0225 12:40:10.732873  9295 net.cpp:122] Setting up relu3_2
I0225 12:40:10.732892  9295 net.cpp:129] Top shape: 50 256 38 33 (16051200)
I0225 12:40:10.732901  9295 net.cpp:137] Memory required for data: 4626569600
I0225 12:40:10.732929  9295 layer_factory.hpp:77] Creating layer conv3_3
I0225 12:40:10.732954  9295 net.cpp:84] Creating Layer conv3_3
I0225 12:40:10.732964  9295 net.cpp:406] conv3_3 <- conv3_2
I0225 12:40:10.732977  9295 net.cpp:380] conv3_3 -> conv3_3
I0225 12:40:10.742455  9295 net.cpp:122] Setting up conv3_3
I0225 12:40:10.742475  9295 net.cpp:129] Top shape: 50 256 38 33 (16051200)
I0225 12:40:10.742483  9295 net.cpp:137] Memory required for data: 4690774400
I0225 12:40:10.742496  9295 layer_factory.hpp:77] Creating layer relu3_3
I0225 12:40:10.742512  9295 net.cpp:84] Creating Layer relu3_3
I0225 12:40:10.742523  9295 net.cpp:406] relu3_3 <- conv3_3
I0225 12:40:10.742534  9295 net.cpp:367] relu3_3 -> conv3_3 (in-place)
I0225 12:40:10.744379  9295 net.cpp:122] Setting up relu3_3
I0225 12:40:10.744397  9295 net.cpp:129] Top shape: 50 256 38 33 (16051200)
I0225 12:40:10.744406  9295 net.cpp:137] Memory required for data: 4754979200
I0225 12:40:10.744421  9295 layer_factory.hpp:77] Creating layer res3_3
I0225 12:40:10.744434  9295 net.cpp:84] Creating Layer res3_3
I0225 12:40:10.744444  9295 net.cpp:406] res3_3 <- conv3_1_relu3_1_0_split_1
I0225 12:40:10.744455  9295 net.cpp:406] res3_3 <- conv3_3
I0225 12:40:10.744467  9295 net.cpp:380] res3_3 -> res3_3
I0225 12:40:10.744506  9295 net.cpp:122] Setting up res3_3
I0225 12:40:10.744519  9295 net.cpp:129] Top shape: 50 256 38 33 (16051200)
I0225 12:40:10.744527  9295 net.cpp:137] Memory required for data: 4819184000
I0225 12:40:10.744572  9295 layer_factory.hpp:77] Creating layer res3_3_res3_3_0_split
I0225 12:40:10.744590  9295 net.cpp:84] Creating Layer res3_3_res3_3_0_split
I0225 12:40:10.744599  9295 net.cpp:406] res3_3_res3_3_0_split <- res3_3
I0225 12:40:10.744611  9295 net.cpp:380] res3_3_res3_3_0_split -> res3_3_res3_3_0_split_0
I0225 12:40:10.744621  9295 net.cpp:380] res3_3_res3_3_0_split -> res3_3_res3_3_0_split_1
I0225 12:40:10.744669  9295 net.cpp:122] Setting up res3_3_res3_3_0_split
I0225 12:40:10.744681  9295 net.cpp:129] Top shape: 50 256 38 33 (16051200)
I0225 12:40:10.744691  9295 net.cpp:129] Top shape: 50 256 38 33 (16051200)
I0225 12:40:10.744699  9295 net.cpp:137] Memory required for data: 4947593600
I0225 12:40:10.744707  9295 layer_factory.hpp:77] Creating layer conv3_4
I0225 12:40:10.744722  9295 net.cpp:84] Creating Layer conv3_4
I0225 12:40:10.744731  9295 net.cpp:406] conv3_4 <- res3_3_res3_3_0_split_0
I0225 12:40:10.744745  9295 net.cpp:380] conv3_4 -> conv3_4
I0225 12:40:10.754315  9295 net.cpp:122] Setting up conv3_4
I0225 12:40:10.754335  9295 net.cpp:129] Top shape: 50 256 38 33 (16051200)
I0225 12:40:10.754344  9295 net.cpp:137] Memory required for data: 5011798400
I0225 12:40:10.754357  9295 layer_factory.hpp:77] Creating layer relu3_4
I0225 12:40:10.754370  9295 net.cpp:84] Creating Layer relu3_4
I0225 12:40:10.754380  9295 net.cpp:406] relu3_4 <- conv3_4
I0225 12:40:10.754395  9295 net.cpp:367] relu3_4 -> conv3_4 (in-place)
I0225 12:40:10.756253  9295 net.cpp:122] Setting up relu3_4
I0225 12:40:10.756274  9295 net.cpp:129] Top shape: 50 256 38 33 (16051200)
I0225 12:40:10.756283  9295 net.cpp:137] Memory required for data: 5076003200
I0225 12:40:10.756295  9295 layer_factory.hpp:77] Creating layer conv3_5
I0225 12:40:10.756312  9295 net.cpp:84] Creating Layer conv3_5
I0225 12:40:10.756322  9295 net.cpp:406] conv3_5 <- conv3_4
I0225 12:40:10.756336  9295 net.cpp:380] conv3_5 -> conv3_5
I0225 12:40:10.771097  9295 net.cpp:122] Setting up conv3_5
I0225 12:40:10.771117  9295 net.cpp:129] Top shape: 50 256 38 33 (16051200)
I0225 12:40:10.771127  9295 net.cpp:137] Memory required for data: 5140208000
I0225 12:40:10.771140  9295 layer_factory.hpp:77] Creating layer relu3_5
I0225 12:40:10.771153  9295 net.cpp:84] Creating Layer relu3_5
I0225 12:40:10.771163  9295 net.cpp:406] relu3_5 <- conv3_5
I0225 12:40:10.771178  9295 net.cpp:367] relu3_5 -> conv3_5 (in-place)
I0225 12:40:10.773036  9295 net.cpp:122] Setting up relu3_5
I0225 12:40:10.773054  9295 net.cpp:129] Top shape: 50 256 38 33 (16051200)
I0225 12:40:10.773063  9295 net.cpp:137] Memory required for data: 5204412800
I0225 12:40:10.773080  9295 layer_factory.hpp:77] Creating layer res3_5
I0225 12:40:10.773097  9295 net.cpp:84] Creating Layer res3_5
I0225 12:40:10.773108  9295 net.cpp:406] res3_5 <- res3_3_res3_3_0_split_1
I0225 12:40:10.773118  9295 net.cpp:406] res3_5 <- conv3_5
I0225 12:40:10.773129  9295 net.cpp:380] res3_5 -> res3_5
I0225 12:40:10.773174  9295 net.cpp:122] Setting up res3_5
I0225 12:40:10.773186  9295 net.cpp:129] Top shape: 50 256 38 33 (16051200)
I0225 12:40:10.773195  9295 net.cpp:137] Memory required for data: 5268617600
I0225 12:40:10.773203  9295 layer_factory.hpp:77] Creating layer res3_5_res3_5_0_split
I0225 12:40:10.773214  9295 net.cpp:84] Creating Layer res3_5_res3_5_0_split
I0225 12:40:10.773224  9295 net.cpp:406] res3_5_res3_5_0_split <- res3_5
I0225 12:40:10.773234  9295 net.cpp:380] res3_5_res3_5_0_split -> res3_5_res3_5_0_split_0
I0225 12:40:10.773247  9295 net.cpp:380] res3_5_res3_5_0_split -> res3_5_res3_5_0_split_1
I0225 12:40:10.773293  9295 net.cpp:122] Setting up res3_5_res3_5_0_split
I0225 12:40:10.773306  9295 net.cpp:129] Top shape: 50 256 38 33 (16051200)
I0225 12:40:10.773315  9295 net.cpp:129] Top shape: 50 256 38 33 (16051200)
I0225 12:40:10.773324  9295 net.cpp:137] Memory required for data: 5397027200
I0225 12:40:10.773331  9295 layer_factory.hpp:77] Creating layer conv3_6
I0225 12:40:10.773350  9295 net.cpp:84] Creating Layer conv3_6
I0225 12:40:10.773360  9295 net.cpp:406] conv3_6 <- res3_5_res3_5_0_split_0
I0225 12:40:10.773371  9295 net.cpp:380] conv3_6 -> conv3_6
I0225 12:40:10.782780  9295 net.cpp:122] Setting up conv3_6
I0225 12:40:10.782800  9295 net.cpp:129] Top shape: 50 256 38 33 (16051200)
I0225 12:40:10.782809  9295 net.cpp:137] Memory required for data: 5461232000
I0225 12:40:10.782822  9295 layer_factory.hpp:77] Creating layer relu3_6
I0225 12:40:10.782841  9295 net.cpp:84] Creating Layer relu3_6
I0225 12:40:10.782852  9295 net.cpp:406] relu3_6 <- conv3_6
I0225 12:40:10.782865  9295 net.cpp:367] relu3_6 -> conv3_6 (in-place)
I0225 12:40:10.784732  9295 net.cpp:122] Setting up relu3_6
I0225 12:40:10.784751  9295 net.cpp:129] Top shape: 50 256 38 33 (16051200)
I0225 12:40:10.784761  9295 net.cpp:137] Memory required for data: 5525436800
I0225 12:40:10.784772  9295 layer_factory.hpp:77] Creating layer conv3_7
I0225 12:40:10.784795  9295 net.cpp:84] Creating Layer conv3_7
I0225 12:40:10.784806  9295 net.cpp:406] conv3_7 <- conv3_6
I0225 12:40:10.784821  9295 net.cpp:380] conv3_7 -> conv3_7
I0225 12:40:10.794548  9295 net.cpp:122] Setting up conv3_7
I0225 12:40:10.794567  9295 net.cpp:129] Top shape: 50 256 38 33 (16051200)
I0225 12:40:10.794576  9295 net.cpp:137] Memory required for data: 5589641600
I0225 12:40:10.794589  9295 layer_factory.hpp:77] Creating layer relu3_7
I0225 12:40:10.794602  9295 net.cpp:84] Creating Layer relu3_7
I0225 12:40:10.794612  9295 net.cpp:406] relu3_7 <- conv3_7
I0225 12:40:10.794623  9295 net.cpp:367] relu3_7 -> conv3_7 (in-place)
I0225 12:40:10.796458  9295 net.cpp:122] Setting up relu3_7
I0225 12:40:10.796475  9295 net.cpp:129] Top shape: 50 256 38 33 (16051200)
I0225 12:40:10.796485  9295 net.cpp:137] Memory required for data: 5653846400
I0225 12:40:10.796496  9295 layer_factory.hpp:77] Creating layer res3_7
I0225 12:40:10.796512  9295 net.cpp:84] Creating Layer res3_7
I0225 12:40:10.796522  9295 net.cpp:406] res3_7 <- res3_5_res3_5_0_split_1
I0225 12:40:10.796533  9295 net.cpp:406] res3_7 <- conv3_7
I0225 12:40:10.796608  9295 net.cpp:380] res3_7 -> res3_7
I0225 12:40:10.796648  9295 net.cpp:122] Setting up res3_7
I0225 12:40:10.796658  9295 net.cpp:129] Top shape: 50 256 38 33 (16051200)
I0225 12:40:10.796669  9295 net.cpp:137] Memory required for data: 5718051200
I0225 12:40:10.796680  9295 layer_factory.hpp:77] Creating layer res3_7_res3_7_0_split
I0225 12:40:10.796708  9295 net.cpp:84] Creating Layer res3_7_res3_7_0_split
I0225 12:40:10.796732  9295 net.cpp:406] res3_7_res3_7_0_split <- res3_7
I0225 12:40:10.796746  9295 net.cpp:380] res3_7_res3_7_0_split -> res3_7_res3_7_0_split_0
I0225 12:40:10.796759  9295 net.cpp:380] res3_7_res3_7_0_split -> res3_7_res3_7_0_split_1
I0225 12:40:10.796810  9295 net.cpp:122] Setting up res3_7_res3_7_0_split
I0225 12:40:10.796828  9295 net.cpp:129] Top shape: 50 256 38 33 (16051200)
I0225 12:40:10.796844  9295 net.cpp:129] Top shape: 50 256 38 33 (16051200)
I0225 12:40:10.796856  9295 net.cpp:137] Memory required for data: 5846460800
I0225 12:40:10.796866  9295 layer_factory.hpp:77] Creating layer conv3_8
I0225 12:40:10.796890  9295 net.cpp:84] Creating Layer conv3_8
I0225 12:40:10.796905  9295 net.cpp:406] conv3_8 <- res3_7_res3_7_0_split_0
I0225 12:40:10.796922  9295 net.cpp:380] conv3_8 -> conv3_8
I0225 12:40:10.806445  9295 net.cpp:122] Setting up conv3_8
I0225 12:40:10.806465  9295 net.cpp:129] Top shape: 50 256 38 33 (16051200)
I0225 12:40:10.806474  9295 net.cpp:137] Memory required for data: 5910665600
I0225 12:40:10.806488  9295 layer_factory.hpp:77] Creating layer relu3_8
I0225 12:40:10.806499  9295 net.cpp:84] Creating Layer relu3_8
I0225 12:40:10.806510  9295 net.cpp:406] relu3_8 <- conv3_8
I0225 12:40:10.806524  9295 net.cpp:367] relu3_8 -> conv3_8 (in-place)
I0225 12:40:10.808362  9295 net.cpp:122] Setting up relu3_8
I0225 12:40:10.808385  9295 net.cpp:129] Top shape: 50 256 38 33 (16051200)
I0225 12:40:10.808394  9295 net.cpp:137] Memory required for data: 5974870400
I0225 12:40:10.808406  9295 layer_factory.hpp:77] Creating layer conv3_9
I0225 12:40:10.808423  9295 net.cpp:84] Creating Layer conv3_9
I0225 12:40:10.808434  9295 net.cpp:406] conv3_9 <- conv3_8
I0225 12:40:10.808447  9295 net.cpp:380] conv3_9 -> conv3_9
I0225 12:40:10.821992  9295 net.cpp:122] Setting up conv3_9
I0225 12:40:10.822016  9295 net.cpp:129] Top shape: 50 256 38 33 (16051200)
I0225 12:40:10.822026  9295 net.cpp:137] Memory required for data: 6039075200
I0225 12:40:10.822041  9295 layer_factory.hpp:77] Creating layer relu3_9
I0225 12:40:10.822053  9295 net.cpp:84] Creating Layer relu3_9
I0225 12:40:10.822063  9295 net.cpp:406] relu3_9 <- conv3_9
I0225 12:40:10.822074  9295 net.cpp:367] relu3_9 -> conv3_9 (in-place)
I0225 12:40:10.823927  9295 net.cpp:122] Setting up relu3_9
I0225 12:40:10.823946  9295 net.cpp:129] Top shape: 50 256 38 33 (16051200)
I0225 12:40:10.823956  9295 net.cpp:137] Memory required for data: 6103280000
I0225 12:40:10.823967  9295 layer_factory.hpp:77] Creating layer res3_9
I0225 12:40:10.823981  9295 net.cpp:84] Creating Layer res3_9
I0225 12:40:10.823990  9295 net.cpp:406] res3_9 <- res3_7_res3_7_0_split_1
I0225 12:40:10.824002  9295 net.cpp:406] res3_9 <- conv3_9
I0225 12:40:10.824014  9295 net.cpp:380] res3_9 -> res3_9
I0225 12:40:10.824056  9295 net.cpp:122] Setting up res3_9
I0225 12:40:10.824072  9295 net.cpp:129] Top shape: 50 256 38 33 (16051200)
I0225 12:40:10.824080  9295 net.cpp:137] Memory required for data: 6167484800
I0225 12:40:10.824090  9295 layer_factory.hpp:77] Creating layer conv4_1
I0225 12:40:10.824106  9295 net.cpp:84] Creating Layer conv4_1
I0225 12:40:10.824116  9295 net.cpp:406] conv4_1 <- res3_9
I0225 12:40:10.824127  9295 net.cpp:380] conv4_1 -> conv4_1
I0225 12:40:10.836259  9295 net.cpp:122] Setting up conv4_1
I0225 12:40:10.836282  9295 net.cpp:129] Top shape: 50 512 19 17 (8268800)
I0225 12:40:10.836290  9295 net.cpp:137] Memory required for data: 6200560000
I0225 12:40:10.836303  9295 layer_factory.hpp:77] Creating layer relu4_1
I0225 12:40:10.836316  9295 net.cpp:84] Creating Layer relu4_1
I0225 12:40:10.836326  9295 net.cpp:406] relu4_1 <- conv4_1
I0225 12:40:10.836340  9295 net.cpp:367] relu4_1 -> conv4_1 (in-place)
I0225 12:40:10.836601  9295 net.cpp:122] Setting up relu4_1
I0225 12:40:10.836611  9295 net.cpp:129] Top shape: 50 512 19 17 (8268800)
I0225 12:40:10.836621  9295 net.cpp:137] Memory required for data: 6233635200
I0225 12:40:10.836628  9295 layer_factory.hpp:77] Creating layer conv4_1_relu4_1_0_split
I0225 12:40:10.836637  9295 net.cpp:84] Creating Layer conv4_1_relu4_1_0_split
I0225 12:40:10.836645  9295 net.cpp:406] conv4_1_relu4_1_0_split <- conv4_1
I0225 12:40:10.836660  9295 net.cpp:380] conv4_1_relu4_1_0_split -> conv4_1_relu4_1_0_split_0
I0225 12:40:10.836678  9295 net.cpp:380] conv4_1_relu4_1_0_split -> conv4_1_relu4_1_0_split_1
I0225 12:40:10.836728  9295 net.cpp:122] Setting up conv4_1_relu4_1_0_split
I0225 12:40:10.836740  9295 net.cpp:129] Top shape: 50 512 19 17 (8268800)
I0225 12:40:10.836750  9295 net.cpp:129] Top shape: 50 512 19 17 (8268800)
I0225 12:40:10.836758  9295 net.cpp:137] Memory required for data: 6299785600
I0225 12:40:10.836767  9295 layer_factory.hpp:77] Creating layer conv4_2
I0225 12:40:10.836784  9295 net.cpp:84] Creating Layer conv4_2
I0225 12:40:10.836794  9295 net.cpp:406] conv4_2 <- conv4_1_relu4_1_0_split_0
I0225 12:40:10.836805  9295 net.cpp:380] conv4_2 -> conv4_2
I0225 12:40:10.862088  9295 net.cpp:122] Setting up conv4_2
I0225 12:40:10.862114  9295 net.cpp:129] Top shape: 50 512 19 17 (8268800)
I0225 12:40:10.862124  9295 net.cpp:137] Memory required for data: 6332860800
I0225 12:40:10.862145  9295 layer_factory.hpp:77] Creating layer relu4_2
I0225 12:40:10.862176  9295 net.cpp:84] Creating Layer relu4_2
I0225 12:40:10.862187  9295 net.cpp:406] relu4_2 <- conv4_2
I0225 12:40:10.862200  9295 net.cpp:367] relu4_2 -> conv4_2 (in-place)
I0225 12:40:10.862509  9295 net.cpp:122] Setting up relu4_2
I0225 12:40:10.862525  9295 net.cpp:129] Top shape: 50 512 19 17 (8268800)
I0225 12:40:10.862534  9295 net.cpp:137] Memory required for data: 6365936000
I0225 12:40:10.862545  9295 layer_factory.hpp:77] Creating layer conv4_3
I0225 12:40:10.862560  9295 net.cpp:84] Creating Layer conv4_3
I0225 12:40:10.862571  9295 net.cpp:406] conv4_3 <- conv4_2
I0225 12:40:10.862583  9295 net.cpp:380] conv4_3 -> conv4_3
I0225 12:40:10.893378  9295 net.cpp:122] Setting up conv4_3
I0225 12:40:10.893457  9295 net.cpp:129] Top shape: 50 512 19 17 (8268800)
I0225 12:40:10.893467  9295 net.cpp:137] Memory required for data: 6399011200
I0225 12:40:10.893483  9295 layer_factory.hpp:77] Creating layer relu4_3
I0225 12:40:10.893550  9295 net.cpp:84] Creating Layer relu4_3
I0225 12:40:10.893563  9295 net.cpp:406] relu4_3 <- conv4_3
I0225 12:40:10.893579  9295 net.cpp:367] relu4_3 -> conv4_3 (in-place)
I0225 12:40:10.894253  9295 net.cpp:122] Setting up relu4_3
I0225 12:40:10.894320  9295 net.cpp:129] Top shape: 50 512 19 17 (8268800)
I0225 12:40:10.894345  9295 net.cpp:137] Memory required for data: 6432086400
I0225 12:40:10.894376  9295 layer_factory.hpp:77] Creating layer res4_3
I0225 12:40:10.894449  9295 net.cpp:84] Creating Layer res4_3
I0225 12:40:10.894461  9295 net.cpp:406] res4_3 <- conv4_1_relu4_1_0_split_1
I0225 12:40:10.894474  9295 net.cpp:406] res4_3 <- conv4_3
I0225 12:40:10.894492  9295 net.cpp:380] res4_3 -> res4_3
I0225 12:40:10.894559  9295 net.cpp:122] Setting up res4_3
I0225 12:40:10.894626  9295 net.cpp:129] Top shape: 50 512 19 17 (8268800)
I0225 12:40:10.894650  9295 net.cpp:137] Memory required for data: 6465161600
I0225 12:40:10.894659  9295 layer_factory.hpp:77] Creating layer pool1
I0225 12:40:10.894672  9295 net.cpp:84] Creating Layer pool1
I0225 12:40:10.894682  9295 net.cpp:406] pool1 <- res4_3
I0225 12:40:10.894696  9295 net.cpp:380] pool1 -> res4_3p
I0225 12:40:10.896183  9295 net.cpp:122] Setting up pool1
I0225 12:40:10.896203  9295 net.cpp:129] Top shape: 50 512 1 17 (435200)
I0225 12:40:10.896211  9295 net.cpp:137] Memory required for data: 6466902400
I0225 12:40:10.896220  9295 layer_factory.hpp:77] Creating layer fc5
I0225 12:40:10.896236  9295 net.cpp:84] Creating Layer fc5
I0225 12:40:10.896247  9295 net.cpp:406] fc5 <- res4_3p
I0225 12:40:10.896261  9295 net.cpp:380] fc5 -> fc5
I0225 12:40:10.930066  9295 net.cpp:122] Setting up fc5
I0225 12:40:10.930101  9295 net.cpp:129] Top shape: 50 512 (25600)
I0225 12:40:10.930111  9295 net.cpp:137] Memory required for data: 6467004800
I0225 12:40:10.930128  9295 layer_factory.hpp:77] Creating layer fc6
I0225 12:40:10.930196  9295 net.cpp:84] Creating Layer fc6
I0225 12:40:10.930207  9295 net.cpp:406] fc6 <- fc5
I0225 12:40:10.930224  9295 net.cpp:380] fc6 -> fc6
I0225 12:40:10.935957  9295 net.cpp:122] Setting up fc6
I0225 12:40:10.935978  9295 net.cpp:129] Top shape: 50 1251 (62550)
I0225 12:40:10.935994  9295 net.cpp:137] Memory required for data: 6467255000
I0225 12:40:10.936008  9295 layer_factory.hpp:77] Creating layer fc6_fc6_0_split
I0225 12:40:10.936038  9295 net.cpp:84] Creating Layer fc6_fc6_0_split
I0225 12:40:10.936049  9295 net.cpp:406] fc6_fc6_0_split <- fc6
I0225 12:40:10.936066  9295 net.cpp:380] fc6_fc6_0_split -> fc6_fc6_0_split_0
I0225 12:40:10.936085  9295 net.cpp:380] fc6_fc6_0_split -> fc6_fc6_0_split_1
I0225 12:40:10.936098  9295 net.cpp:380] fc6_fc6_0_split -> fc6_fc6_0_split_2
I0225 12:40:10.936187  9295 net.cpp:122] Setting up fc6_fc6_0_split
I0225 12:40:10.936198  9295 net.cpp:129] Top shape: 50 1251 (62550)
I0225 12:40:10.936209  9295 net.cpp:129] Top shape: 50 1251 (62550)
I0225 12:40:10.936219  9295 net.cpp:129] Top shape: 50 1251 (62550)
I0225 12:40:10.936228  9295 net.cpp:137] Memory required for data: 6468005600
I0225 12:40:10.936237  9295 layer_factory.hpp:77] Creating layer softmax_loss
I0225 12:40:10.936250  9295 net.cpp:84] Creating Layer softmax_loss
I0225 12:40:10.936260  9295 net.cpp:406] softmax_loss <- fc6_fc6_0_split_0
I0225 12:40:10.936271  9295 net.cpp:406] softmax_loss <- label_input_1_split_0
I0225 12:40:10.936283  9295 net.cpp:380] softmax_loss -> softmax_loss
…
